f4_Meta/20_LazyNet1_trainset_1X1Xe200bsize5@0.0001dk0.0001dv0.1_nature_cuda1.pth (torch, 107996 bytes, 8 tensors)

denselog_layers.0.weight f4 [80, 80]
0.04309131 0.028946923 0.0031500382 -0.00081761717 -0.0009772669 0.00015464568 -0.015912645 -0.0010937508
4.7598311e-07 8.261358e-07 7.18906e-08 0.0013674642 -0.0013678753 -0.013281188 0.049229737 -0.016395051
0.0010396532 0.001993814 -0.000114024035 0.00061547186 -0.00049153244 0.013741227 -0.00075034937 -0.0010549077
-0.015414877 0.0008139179 0.0005890258 0.009537655 0.010881897 -0.0002685379 0.048519548 -1.0787383e-07
-0.0006935587 0.00052324776 0.00076031114 0.0011221456 8.364139e-06 -0.00041678306 -0.0005676836 -0.00016127995
-6.9383404e-08 -8.591736e-08 -0.00019119214 0.00011260802 0.028027222 -0.0038055992 0.03162693 0.030573905
0.0027780435 0.0035208925 -4.5543064e-08 0.009328819 0.003996055 0.017276911 0.004354379 0.0030986434
-0.0058060754 0.055940732 0.0028540876 0.001208587 0.012045393 0.02281234 0.0034617544 0.00011546476
4.198906e-08 -0.024859732 -0.035602115 0.00902858 -0.08943796 0.0006804507 -0.004746012 0.031290144
-0.0212265 0.00025313825 0.034839295 -0.00067712937 -1.989945e-05 -0.001419754 -7.900466e-08 0.009424594
-0.039371084 0.0011271454 9.402152e-11 -0.000897119 -0.0024931652 -0.0015075097 -0.003707111 -0.0031246236
3.629075e-10 -2.1610151e-11 5.0134e-41 -3.967837e-05 -0.005672439 -0.002336588 -0.0040307473 -0.0035417215
-0.0007399302 -0.0025314712 -0.0019210667 -0.00089340104 -0.0014487064 -0.00015734017 -0.0016866565 -0.001886817
0.0010726153 -0.0007633593 -0.00013199888 -0.002810242 -0.083253086 -0.0014625728 -0.0015624444 4.9198e-41
-0.0011126121 -1.0621238e-12 -0.00014967192 -0.0013630668 -2.8606038e-19 -0.0011023879 -0.0018025946 -1.6887629e-10
5.1107e-41 4.9219e-41 -0.0038199783 3.0303978e-26 0.0011405356 -0.0017223903 0.006528832 0.0005730707
-0.001161564 3.1923795e-05 4.9498e-41 -0.0007222433 -0.0004768645 0.000764098 7.1687523e-09 -0.0003766027
0.00022622469 0.005083592 -0.00019708976 -0.0013048854 -0.0007427745 -0.0018164347 -0.001385464 -0.000975239
4.9228e-41 -0.006141976 -0.003213699 -0.0038971133 0.012153229 2.9611666e-09 -0.0036176073 -0.0009690178
-0.0069849123 -0.0037927998 -0.0024660884 -0.0031372833 -1.638376e-09 -0.0036107018 4.9141e-41 -0.0014966435
0.024493959 -0.013686525 -1.3695149e-10 4.8333182e-05 1.7806908e-13 5.0908206e-05 -0.006735312 -8.774252e-15
-0.00015430496 1.525589e-14 -8.860325e-15 2.5466818e-05 -0.0023547984 0.00021252115 -0.0016019049 -0.00075800356
-7.79527e-15 4.1958512e-05 0.000114394345 1.74237e-05 1.2271819e-05 -0.0004887956 0.00019349673 1.4431116e-05
-3.427466e-09 0.00016008862 -5.078823e-14 -0.0002477039 -0.0688013 4.0599713e-05 -0.0002796583 -4.0889897e-15
2.0650443e-05 -1.4456725e-14 1.755507e-05 7.453873e-07 -4.705797e-14 1.6516953e-05 1.8116287e-05 -1.9833204e-14
-2.6939896e-16 -2.4173715e-15 2.5337e-09 -1.1875034e-14 0.00067255076 -0.00012450592 -1.3336386e-13 -1.5140154e-13
5.1115057e-05 5.1482817e-05 -3.15161e-15 -0.0007797085 1.2226151e-05 5.5417032e-14 -2.7879801e-15 -3.7143116e-14
0.00058152893 -1.3687659e-06 2.3810343e-14 1.759777e-06 -0.003039375 -0.006247271 0.00026570758 9.796984e-06
2.4230055e-16 -0.0023385785 -0.020382263 -9.236412e-05 -0.0054008737 0.00013488802 -0.008475324 -0.014531952
-2.4177409e-14 4.2943197e-05 -0.0035231346 0.00011818415 7.114811e-15 -0.0023720255 9.0787e-15 -0.0051144003
-0.012210673 -0.0051319725 5.509507e-26 -1.6170775e-06 -6.736301e-22 -3.6059288e-07 -0.0012837056 -5.1398095e-13
1.5026742e-35 4.9422e-41 5.1611e-41 -1.5810064e-08 -0.00016659334 -0.0015464551 -0.0031768046 -0.002344073
00000000: 8380 303d 1922 ed3c df70 4e3b 5c55 56ba
00000010: a317 80ba 6228 2239 3c5b 82bc 305c 8fba
00000020: 9f8a ff34 9fc3 5d35 4662 9a33 7c3c b33a
00000030: 474a b3ba 5799 59bc 1fa5 493d ea4e 86bc
00000040: f944 883a a6aa 023b 3020 efb8 9e57 213a
00000050: 2fda 00ba e222 613c 18b3 44ba d444 8aba
00000060: ae8e 7cbc 1b5d 553a da68 1a3a d343 1c3c
00000070: fc49 323c 8cca 8cb9 6fbc 463d 44a8 e7b3
00000080: f0cf 35ba 902a 093a 9e4f 473a f514 933a
00000090: b453 0c37 ad83 dab9 9ad0 14ba 421d 29b9
000000a0: eeff 94b3 9181 b8b3 c07a 48b9 f827 ec38
000000b0: 5899 e53c 5c67 79bb 3d8b 013d 2076 fa3c
000000c0: d60f 363b c6be 663b 219b 43b3 e7d7 183c
000000d0: 57f1 823b 4f88 8d3c 2eaf 8e3b 9c12 4b3b
000000e0: e440 bebb 1c22 653d a50b 3b3b 7369 9e3a
000000f0: 0a5a 453c f2e0 ba3c 9ade 623b ac25 f238
00000100: 7657 3433 a3a6 cbbc 86d3 11bd 9cec 133c
00000110: 402b b7bd 4660 323a 6f84 9bbb 182a 003d
00000120: 32e3 adbc a4b7 8439 a6b3 0e3d 6281 31ba
00000130: beed a6b7 0a17 baba 45a9 a9b3 9d69 1a3c
00000140: 9343 21bd b9bc 933a 69c1 ce2e a32c 6bba
00000150: 5f64 23bb a297 c5ba 01f3 72bb 7cc6 4cbb
00000160: b182 c72f bc15 bead c18b 0000 536c 26b8
00000170: dedf b9bb 7121 19bb 5c14 84bb 3a1c 68bb
00000180: e0f7 41ba 0ae7 25bb 4dcc fbba 2133 6aba
00000190: 85e2 bdba aefb 24b9 cd12 ddba 134f f7ba
000001a0: ff96 8c3a 2d1c 48ba 2e69 0ab9 092c 38bb
000001b0: 9880 aabd cdb3 bfba efca ccba 2589 0000
000001c0: 11d5 91ba 0b7b 95ab 40f1 1cb9 efa8 b2ba
000001d0: 39dc a8a0 007e 90ba 0a45 ecba 73ae 39af
000001e0: 778e 0000 3489 0000 9a58 7abb db0e 1615
000001f0: 067e 953a d4c1 e1ba d0ef d53b 203a 163a
00000200: 9f3f 98ba eae5 0538 fb89 0000 ed54 3dba
00000210: ab03 fab9 c04d 483a 0351 f631 c272 c5b9
00000220: ba36 6d39 4394 a63b e1a9 4eb9 b008 abba
00000230: c1b6 42ba 6f15 eeba 7598 b5ba 2ea7 7fba
00000240: 3a89 0000 a142 c9bb ec9c 52bb b666 7fbb
00000250: 561e 473c 657d 4b31 6115 6dbb af05 7eba
00000260: b1e1 e4bb 9f90 78bb 199e 21bb e19a 4dbb
00000270: 3b2d e1b0 86a1 6cbb fc88 0000 062b c4ba
00000280: 8ea7 c83c 723d 60bc 6b94 16af 5cb9 4a38
00000290: eb7c 482a 4586 5538 e4b3 dcbb 1810 1ea8
000002a0: eccc 21b9 b069 8928 099d 1fa8 93a1 d537
000002b0: f652 1abb 36d8 5e39 02f7 d1ba c2b4 46ba
000002c0: 566d 0ca8 9cfc 2f38 ffe6 ef38 1c29 9237
000002d0: 10e3 4d37 8422 00ba 62e5 4a39 2c1d 7237
000002e0: 9f88 6bb1 76dd 2739 d8ba 64a9 41de 81b9
000002f0: b2e7 8cbd 9c49 2a38 1a9f 92b9 4652 93a7
00000300: 7d3a ad37 f036 82a8 3a43 9337 a016 4835
00000310: 25ee 53a9 e38d 8a37 6ef8 9737 41a4 b2a8
00000320: 454c 9ba5 a230 2ea7 521d 2e31 eeeb 55a8
00000330: 1e4e 303a ce8d 02b9 8427 16aa 8676 2aaa
00000340: 6064 5638 41ef 5738 f118 63a7 5a65 4cba
00000350: eb1e 4d37 7d93 7929 28e5 48a7 1947 27a9
00000360: bf71 183a 70b6 b7b5 ea76 d628 7a31 ec35
00000370: 4030 47bb e8b5 ccbb ab4e 8b39 ba5d 2437
00000380: 40ad 8b25 d642 19bb b4f8 a6bc 9cb3 c1b8
00000390: d0f9 b0bb ba70 0d39 16dc 0abc 6d17 6ebc
000003a0: 4fc5 d9a8 e81d 3438 64e4 66bb a2d9 f738
000003b0: 462b 0028 fc73 1bbb 1d8c 2328 b396 a7bb
000003c0: 460f 48bc 1b2a a8bb a668 8815 5c0a d9b5
000003d0: 9b97 4b9c 8297 c1b4 0342 a8ba 3bac 10ab
000003e0: afca 9f05 c589 0000 df8f 0000 b3ce 87b2
000003f0: 8faf 2eb9 6cb2 caba f031 50bb 059f 19bb

denselog_layers.0.bias f4 [80]
0.0010747997 -0.0015023067 -0.0013347074 -0.0008161881 -0.004019878 -0.0049709184 -0.004531487 -0.00038182706
-5.92928e-19 -0.0016165255 -0.0006121935 -0.003026654 4.9089e-41 0.015606105 -0.0002566988 -0.00025592573
0.0052454225 4.9121e-41 4.9278e-41 -0.002826253 4.9351e-41 -0.0025954214 4.9242e-41 0.0030049388
-0.0025735758 -0.007542608 4.9295e-41 -0.008238484 -0.016268887 0.025403753 -0.0063732965 -0.0039859954
-0.002480984 0.00095841486 -0.0010839353 -0.0039468165 4.9249e-41 4.928e-41 -0.023462731 -0.0040565594
-0.001585985 0.0017896107 -0.0031043987 4.9047e-41 0.0034322194 0.00047066892 0.00057867635 -0.00231954
-0.0032174708 -4.677327e-21 0.0011053561 0.0033379325 0.0017588136 -0.004491559 -0.014016623 -0.029835332
0.0012540496 -0.006727759 4.9097e-41 -0.0067465166 0.01169598 -0.0047677383 -0.0027341265 0.0006874604
-0.013644062 0.0021983054 0.0049154405 -0.00232504 0.0018462996 -1.873938e-11 -0.0031322308 -0.0005525929
-0.0012343525 -0.00024113414 0.0063279215 -8.605986e-05 -0.0013119333 4.9306e-41 -0.0031060711 0.002525731
00000000: 4be0 8c3a 0ce9 c4ba 59f1 aeba 75f5 55ba
00000010: 2eb9 83bb 16e3 a2bb de7c 94bb f62f c8b9
00000020: 5f00 2fa1 98e1 d3ba 9c7b 20ba d45a 46bb
00000030: d788 0000 c0b0 7f3c 8895 86b9 c52d 86b9
00000040: cbe1 ab3b ee88 0000 5e89 0000 a838 39bb
00000050: 9289 0000 f217 2abb 4489 0000 82ee 443b
00000060: 70a9 28bb fb27 f7bb 6a89 0000 b5fa 06bc
00000070: 5446 85bc 881b d03c 16d7 d0bb f49c 82bb
00000080: 0198 22bb 223e 7b3a d512 8eba 4c54 81bb
00000090: 4989 0000 5f89 0000 ea34 c0bc e3ec 84bb
000000a0: d3e0 cfba 5f91 ea3a 2b73 4bbb b988 0000
000000b0: 16ef 603b 1dc4 f639 50b2 173a 6c03 18bb
000000c0: 34dc 52bb 55b4 b09d 99e1 903a 37c1 5a3b
000000d0: fe87 e63a ee2d 93bb faa5 65bc 3a69 f4bc
000000e0: ec5e a43a 8874 dcbb dd88 0000 e211 ddbb
000000f0: 7fa0 3f3c b03a 9cbb 082f 33bb b036 343a
00000100: 588b 5fbc 7211 103b b411 a13b b35f 18bb
00000110: 89ff f13a 55d5 a4ad 1d46 4dbb e2db 10ba
00000120: ffc9 a1ba f4d8 7cb9 745a cf3b 097b b4b8
00000130: 2df5 abba 7289 0000 3a8f 4bbb bc86 253b

denseexp_layers.0.weight f4 [80, 80]
0.0055578225 0.008138743 0.007484507 0.008148381 0.008215764 0.003410334 0.003785887 0.0062242127
0.008192762 0.0031970118 -0.0001258136 0.008186417 0.008192762 0.00027538574 -0.00016463411 0.008192741
0.0010120922 0.008192762 0.008192678 0.0038761925 0.008192762 0.0043006903 0.008192762 0.007966864
0.008198323 0.007561371 0.008192762 0.008036883 0.004534073 0.0027376777 0.0076902 0.0036795507
-5.164597e-06 1.6954476e-05 0.0035243316 0.0056622336 0.008192762 0.008192762 0.005672673 0.001834895
0.008190592 0.0045802398 0.005139214 0.008192762 -7.5874836e-05 0.00012682479 0.004173288 0.007881115
0.0053258645 0.008192745 0.0018459042 -0.00013494708 0.006379701 0.0024574308 0.0065872995 0.00017766071
0.0039865663 0.007334296 0.008192762 0.006122873 0.0018174911 0.0012782618 0.008194727 0.006515153
0.0061777057 0.0038636501 0.0039481358 0.004985946 -0.00032106598 0.008192763 0.007659915 0.0043020225
0.008129706 0.008193228 -1.8678418e-05 0.008177642 0.005636733 0.008192762 0.008186 0.003938876
0.0053917165 0.008705142 0.007546943 0.008847013 0.008945162 0.009179318 0.0095562795 0.0073560053
0.00891587 -0.00012414725 0.0018013273 0.0089019695 0.00891587 0.0038870252 -0.0028567943 0.008915867
0.0036820087 0.00891587 0.008915847 0.008865758 0.00891587 0.0045047677 0.00891587 0.008838145
0.0089145815 0.0077154413 0.00891587 0.008652354 0.005606628 -0.0008517489 0.008269903 0.008728541
-0.002180531 -0.0015066017 0.00833939 0.0019780886 0.00891587 0.00891587 0.010480945 0.003074447
0.008907648 0.004295889 0.006454583 0.00891587 0.0057688816 0.0008160901 0.0036291645 0.0062746163
-0.00072355906 0.008915864 0.0048041586 0.00018487686 0.0010158971 0.010209051 0.00059759285 -0.0016528358
0.0019662257 0.007101573 0.00891587 0.0071159243 0.00597686 0.0031740528 0.008921556 0.0017832707
0.006406173 0.002872938 0.0063621886 0.008941666 -0.0027781236 0.00891587 0.0076837894 0.005974251
0.008759183 0.008915573 -0.006432735 0.008744627 0.0065612784 0.00891587 0.008907219 0.0008810209
0.007683676 0.00820215 0.009027884 0.008711163 0.008835149 0.0060922443 0.0021189277 0.008195949
0.0088382205 0.0036013864 -0.0013008227 0.008840878 0.0088382205 -0.0008925181 -0.0028495213 0.008838179
-0.0029142776 0.0088382205 0.008837996 -0.00043503844 0.0088382205 0.00966324 0.0088382205 0.007840554
0.008838343 0.008933147 0.0088382205 0.009116438 0.008956275 -0.0067311763 0.00452431 -0.003725459
-0.002187237 -0.0023587346 0.0012721075 -0.0018007617 0.0088382205 0.0088382205 0.010270175 -1.4460113e-05
0.008880478 0.0093320105 0.0024873812 0.0088382205 -0.0014572989 -0.00068192376 0.007871903 0.007992254
0.006248406 0.0088382065 0.005124832 -0.0021892388 0.0068545598 0.0019889208 0.006706832 0.008632676
0.0062026093 0.007931828 0.0088382205 0.00850406 -0.002206792 -6.546234e-05 0.008837567 -0.00033085298
0.009893937 0.0049632587 -0.0010498206 0.01135823 -0.0027616876 0.008838203 0.008718562 0.009692135
0.008680374 0.008833749 -0.0069166212 0.008357522 0.008403735 0.0088382205 0.008841803 0.006674923
0.0064705256 0.0068384744 0.0074878545 0.0073974994 0.0077137514 0.0026705996 0.0025802995 0.0069138287
0.007711761 0.0014741188 -0.00033909307 0.0076929405 0.007711761 0.0009766404 -0.00048643624 0.00771183
00000000: 651e b63b 5d58 053c 9840 f53b c980 053c
00000010: 699b 063c e97f 5f3b a51c 783b 7bf4 cb3b
00000020: ef3a 063c f584 513b d5ec 03b9 5220 063c
00000030: ef3a 063c a661 9039 a2a1 2cb9 d93a 063c
00000040: 2ea8 843a ef3a 063c 953a 063c b807 7e3b
00000050: ef3a 063c ceec 8c3b ef3a 063c 7387 023c
00000060: 4252 063c 61c5 f73b ef3a 063c 21ad 033c
00000070: 9092 943b 9c6a 333b 13fe fb3b 9e24 713b
00000080: 8d4b adb6 7639 8e37 79f8 663b 428a b93b
00000090: ef3a 063c ef3a 063c d5e1 b93b dc80 f03a
000000a0: d531 063c d615 963b da66 a83b ef3a 063c
000000b0: fe1e 9fb8 45fc 0439 14c0 883b cb1f 013c
000000c0: 9784 ae3b dd3a 063c 44f2 f13a 9580 0db9
000000d0: d00c d13b d90c 213b 46da d73b 6f4a 3a39
000000e0: bea1 823b 8954 f03b ef3a 063c 62a2 c83b
000000f0: e238 ee3a 598b a73a 2d43 063c 117d d53b
00000100: 5a6e ca3b 4b35 7d3b 5d5f 813b 2661 a33b
00000110: bf54 a8b9 f03a 063c 0600 fb3b fbf7 8c3b
00000120: 7532 053c e43c 063c 99af 9cb7 84fb 053c
00000130: 58b4 b83b ef3a 063c 931e 063c b011 813b
00000140: ffac b03b 03a0 0e3c 594c f73b 10f3 103c
00000150: bb8e 123c da64 163c f191 1c3c a50a f13b
00000160: df13 123c 862d 02b9 841a ec3a 91d9 113c
00000170: df13 123c 76bd 7e3b 0e39 3bbb db13 123c
00000180: db4d 713b df13 123c c613 123c af41 113c
00000190: df13 123c bb9c 933b df13 123c decd 103c
000001a0: 770e 123c d0d1 fc3b df13 123c 9ac2 0d3c
000001b0: ceb7 b73b e747 5fba 7d7e 073c 2802 0f3c
000001c0: 3de7 0ebb 2a79 c5ba f0a1 083c d2a2 013b
000001d0: df13 123c df13 123c 45b8 2b3c a97c 493b
000001e0: 62f1 113c 87c4 8c3b f780 d33b df13 123c
000001f0: e308 bd3b e1ee 553a 47d7 6d3b 4c9b cd3b
00000200: 3aad 3dba d813 123c 346c 9d3b 81db 4139
00000210: da27 853a dd43 273c c7a7 1c3a f7a3 d8ba
00000220: cbdb 003b 50b4 e83b df13 123c b32c e93b
00000230: 89d9 c33b c503 503b b82b 123c a3bc e93a
00000240: e0ea d13b e747 3c3b e879 d03b 1180 123c
00000250: 2e11 36bb df13 123c 4cc8 fb3b a6c3 c33b
00000260: ad82 0f3c a012 123c b1c9 d2bb a045 0f3c
00000270: feff d63b df13 123c 96ef 113c 50f4 663a
00000280: 59c7 fb3b 5062 063c b1e9 133c 44b9 0e3c
00000290: 4dc1 103c 73a1 c73b b5dd 0a3b 4d48 063c
000002a0: 2fce 103c 3d05 6c3b 5e80 aaba 54d9 103c
000002b0: 2fce 103c e0f7 69ba 09bf 3abb 02ce 103c
000002c0: 77fd 3ebb 2fce 103c 3ecd 103c df15 e4b9
000002d0: 2fce 103c 9152 1e3c 2fce 103c ab75 003c
000002e0: b3ce 103c 565c 123c 2fce 103c 1d5d 153c
000002f0: 57bd 123c 3391 dcbb aa40 943b d526 74bb
00000300: bf57 0fbb 0095 1abb d8bc a63a 8907 ecba
00000310: 2fce 103c 2fce 103c 3c44 283c b699 72b7
00000320: 6d7f 113c 4ae5 183c 5503 233b 2fce 103c
00000330: d602 bfba 21c3 32ba 27f9 003c f1f1 023c
00000340: 6ebf cc3b 20ce 103c 35ee a73b 5579 0fbb
00000350: 379c e03b 8e58 023b fcc4 db3b 1170 0d3c
00000360: 423f cb3b 7ff4 013c 2fce 103c 9d54 0b3c
00000370: d39f 10bb d448 89b8 71cb 103c 5676 adb9
00000380: 2e1a 223c d5a2 a23b 229a 89ba df17 3a3c
00000390: 6efd 34bb 1cce 103c 4dd8 0e3c c3cb 1e3c
000003a0: 2138 0e3c 6ebb 103c d3a4 e2bb fded 083c
000003b0: d2af 093c 2fce 103c 36dd 103c 50b9 da3b
000003c0: b406 d43b 4815 e03b ad5c f53b b966 f23b
000003d0: a3c3 fc3b 3a05 2f3b 3e1a 293b 668d e23b
000003e0: f1b2 fc3b 3837 c13a 4dc8 b1b9 1015 fc3b
000003f0: f1b2 fc3b 9d02 803a 5e08 ffb9 85b3 fc3b

denseexp_layers.0.bias f4 [80]
-9.648333e-05 -0.0027047128 -0.0024996363 -0.00033429102 -0.009071503 -0.0002751222 -0.00056069234 -0.0008447002
-0.0008311064 0.00022560307 -0.00086397876 -0.00015612802 -0.00032577835 -0.0033175088 -0.00049656094 -0.00019769714
-0.0009975958 -0.0023564692 -0.00019112178 -0.0014467513 -0.0012751833 -5.6704324e-05 0.0005822905 -0.00063411007
-0.0009622893 -0.00048437627 -0.007719162 -7.793243e-05 -0.0018632011 -0.00010872137 -0.0039656945 -0.00011547824
0.00020872177 -0.00092086766 -0.0004169263 -0.001273418 -0.00020062667 -0.00012556756 -0.0005878759 -0.0018711798
0.0005835935 -0.0011966187 0.000326468 -0.00093273964 -0.00039805175 -7.695816e-05 -0.001855193 -0.0010419352
-0.0005752445 -8.031577e-05 -0.0007206341 -0.0010355128 -0.0005246146 -0.0012985457 -0.00067098794 -0.0013441743
-0.00073639135 -0.0012710463 -0.0005765009 -0.0018967012 -0.0002511401 -0.00079062855 -6.6315486e-05 -0.0008329056
-0.0004442614 -0.0006180888 -0.00039680128 -0.0012329408 -0.0006300651 0.00012834219 -0.008019434 -0.0005978562
-0.0011353582 -0.0005482983 -0.002877716 -0.00051730254 -0.0016735721 6.6769135e-05 -0.0007830162 -0.004958762
00000000: 1857 cab8 8d41 31bb f0d0 23bb c843 afb9
00000010: a4a0 14bc 473e 90b9 6dfb 12ba df6e 5dba
00000020: 9bde 59ba dd8f 6c39 a27c 62ba 4cb6 23b9
00000030: 3bcd aab9 906a 59bb a42b 02ba ec4c 4fb9
00000040: c3c1 82ba fe6e 1abb dd67 48b9 eba0 bdba
00000050: 0d24 a7ba ced5 6db8 dba4 183a 683a 26ba
00000060: 2442 7cba e2f3 fdb9 06f1 fcbb a86f a3b8
00000070: a836 f4ba 5701 e4b8 a8f2 81bb e82c f2b8
00000080: 53dc 5a39 6266 71ba e796 dab9 d1e8 a6ba
00000090: 505f 52b9 c9aa 03b9 af1b 1aba 6042 f5ba
000000a0: 4cfc 183a dcd7 9cba cb29 ab39 1983 74ba
000000b0: 9ab1 d0b9 9964 a1b8 f329 f3ba 8b91 88ba
000000c0: 01cc 16ba 336f a8b8 f0e8 3cba 0bba 87ba
000000d0: 4a86 09ba f733 aaba 3de5 2fba 012f b0ba
000000e0: 630a 41ba 3d99 a6ba 5220 17ba bb9a f8ba
000000f0: 74ab 83b9 2f42 4fba db12 8bb8 5957 5aba
00000100: c1eb e8b9 3d07 22ba c409 d0b9 a19a a1ba
00000110: f42a 25ba 9893 0639 f263 03bc 73b9 1cba
00000120: 4dd0 94ba adbb 0fba 1098 3cbb 969b 07ba
00000130: c35b dbba 6806 8c38 5443 4dba 1c7d a2bb

linear1.weight f4 [80, 80]
0.006139666 0.019287623 -0.0047863554 0.006369334 -0.00014234202 0.008037961 0.010168899 -0.0027123876
0.00807996 -0.003113821 0.0021181488 0.003026624 0.007976317 0.006481681 -0.013794631 -0.012290722
0.020652544 0.026735218 -0.002415026 -0.014007166 0.017167524 0.005700473 0.04753527 0.00818745
0.01781391 -0.005906976 0.0015586778 0.00045137233 -0.013744531 -0.00036602703 0.0492744 0.0032119271
-0.014122639 0.012154991 0.0054632304 -0.014172288 0.004985294 -0.008699119 -0.004430912 0.009533916
-0.0008907472 0.0050828937 -3.893323e-05 0.0066905827 0.0067793615 0.005819524 0.00867348 0.021806918
0.012090861 -0.00971937 0.010353111 0.0064617046 0.00873869 0.021279594 0.004968272 0.016733067
-0.008960274 -0.006653817 -0.008437767 0.00010284257 -0.05114011 0.008800673 0.0038340194 0.0034475222
0.0012878163 0.01685277 0.009910019 0.0070905727 -0.0013832306 -0.004109123 0.003367854 -0.008436447
0.023337377 -0.011761872 -0.007866645 -0.010662377 0.011884158 -0.017111113 0.014990995 0.07120668
0.0006065635 -0.0034797054 -0.003060874 0.00080517767 0.0021927531 7.197707e-05 -0.0027463133 0.0033495778
0.0012978544 -0.0021439665 -0.001050732 0.0010818033 -0.00037134113 -0.0012233158 -0.0054997853 -0.0007075921
0.0033256172 -0.0036729807 0.0014584993 0.0048113475 0.0032555636 -0.0011797628 -0.0060678474 0.002578861
0.008116139 0.01182092 0.0019887506 -0.0018347125 -0.0010199404 0.0015393314 -0.003211696 -0.002156537
-0.0037267176 0.0009621959 -0.0015546676 0.0004608729 0.0002649489 -0.005265675 -0.007124879 0.0015558142
-0.005060649 0.00031921203 0.001092407 -0.00012717146 -0.0012162515 3.6010104e-05 -0.015861858 0.0016664484
0.0028064623 -0.0034779508 0.0025857782 0.00580773 0.0012715511 0.00412626 -7.9271944e-05 0.00071055116
-0.0019734553 -0.0051132916 -0.0032104708 -0.0013010151 0.003670803 0.0024801532 -6.546129e-05 0.0053257006
-0.0028110093 0.00012730696 0.0011787314 -0.0013972677 0.00069976185 -0.003502676 -0.004608088 -0.0029248376
0.004571642 -0.0026581427 -0.011476561 -0.001592608 -0.0039305356 -0.00494423 -0.0016915924 -0.00832923
0.00042259519 0.0049702553 0.0016893863 0.00018348706 -0.0007703137 0.0002627948 0.0014771848 -0.0017447689
-0.00087655126 0.00045179157 0.000733127 0.0004416601 0.0005418373 -0.0047265836 0.00046928716 0.0014740792
0.004014866 -0.0013716909 -5.4490316e-05 0.001854946 0.0018256461 0.0004281634 0.00015845592 0.0009117975
-0.0013179318 0.0022023295 0.0012151777 0.00012596895 -0.0003289621 0.00030101664 -0.0017543723 0.00016925135
0.0007374331 0.0016936099 0.0006811017 -0.0005908619 0.00029252184 -0.0013044048 -0.00050965114 0.002773837
0.00052411685 0.00031346123 0.00018098383 0.0007867898 0.0012026946 0.0004907279 0.00077708747 0.0026119004
0.0006158838 0.0006697125 4.335405e-05 0.0034806405 -0.00040414097 -0.00014226363 -0.0002689888 -0.00041692707
-0.0020742354 -0.0012853006 0.00042546954 -0.001589531 0.0005554416 -3.3629483e-05 0.00023449727 0.0017331332
0.00025601764 -0.00071491307 0.00020852865 0.00080844364 -0.0001884036 0.000629506 0.0004554478 0.0011684318
0.001161738 -0.0010009327 0.0029778634 0.0008707386 0.0005653189 0.0021282788 0.0027213902 0.00031754063
-0.00050700735 0.0035680735 -0.0006597988 -2.4502824e-05 -0.00089673355 -8.8098146e-05 0.0020063363 -0.0021783307
-0.0009853778 0.00034156517 0.00027399673 0.00035871 0.00047874948 -0.003962107 0.00068608474 0.0014902188
00000000: 402f c93b 1401 9e3c dcd6 9cbb d9b5 d03b
00000010: a541 15b9 a7b1 033c 749b 263c 50c2 31bb
00000020: cf61 043c 3f11 4cbb a4d0 0a3b 535a 463b
00000030: 19af 023c 4864 d43b e002 62bc 065f 49bc
00000040: 862f a93c d103 db3c 6a45 1ebb 507e 65bc
00000050: e8a2 8c3c 09cb ba3b 58b4 423d a724 063c
00000060: 7aee 913c 4e8f c1bb 8c4c cc3a 2ba6 ec39
00000070: be30 61bc 51e7 bfb9 f4d3 493d 327f 523b
00000080: a462 67bc ba25 473c e604 b33b e232 68bc
00000090: ad5b a33b c086 0ebc 2f31 91bb 2434 1c3c
000000a0: 0881 69ba 678e a63b 3d4c 23b8 ad3c db3b
000000b0: 6825 de3b b5b1 be3b 361b 0e3c 6ca4 b23c
000000c0: bf18 463c fe3d 1fbc 18a0 293c b5bc d33b
000000d0: b92c 0f3c 8b52 ae3c e3cc a23b c913 893c
000000e0: 1dce 12bc 4308 dabb 8f3e 0abc 2fad d738
000000f0: 4b78 51bd b330 103c 2c44 7b3b d3ef 613b
00000100: f2cb a83a d20e 8a3c a25d 223c 0958 e83b
00000110: 844d b5ba d2a5 86bb 37b7 5c3b 0639 0abc
00000120: 072e bf3c deb4 40bc 1ae3 00bc 40b1 2ebc
00000130: c5b5 423c 9b2c 8cbc ca9c 753c cfd4 913d
00000140: ca01 1f3a c50b 64bb f298 48bb 8f12 533a
00000150: 4bb4 0f3b 65f2 9638 7efb 33bb 9784 5b3b
00000160: c41c aa3a ca81 0cbb b7b8 89ba 4ccb 8d3a
00000170: 90b0 c2b9 ab57 a0ba 8b37 b4bb b47d 39ba
00000180: 99f2 593b 64b6 70bb 1e2b bf3a 82a8 9d3b
00000190: 4b5b 553b 45a2 9aba cbd4 c6bb 1c02 293b
000001a0: 8ef9 043c 88ac 413c b355 023b bc7a f0ba
000001b0: 85af 85ba 64c3 c93a 517b 52bb b054 0dbb
000001c0: f23b 74bb e03b 7c3a fdc5 cbba 50a1 f139
000001d0: d7e8 8a39 af8b acbb d177 e9bb 76ec cb3a
000001e0: cdd3 a5bb ea5b a739 192f 8f3a 5459 05b9
000001f0: a16a 9fba 8e09 1738 baf0 81bc bb6c da3a
00000200: a0ec 373b 55ee 63bb 2976 293b c54e be3b
00000210: 2daa a63a 9435 873b cd3e a6b8 4844 3a3a
00000220: 1655 01bb 668d a7bb c366 52bb d386 aaba
00000230: db91 703b 118a 223b 4348 89b8 3783 ae3b
00000240: e938 38bb b47d 0539 aa7f 9a3a 8624 b7ba
00000250: 3970 373a 278d 65bb 72ff 96bb a2ae 3fbb
00000260: b6cd 953b 3c34 2ebb 3008 3cbc 0fbf d0ba
00000270: b9cb 80bb 3503 a2bb 6cb8 ddba 5377 08bc
00000280: c48f dd39 86dd a23b 666e dd3a 6f66 4039
00000290: e1ee 49ba b9c7 8939 199e c13a bbb0 e4ba
000002a0: 5cc8 65ba 70de ec39 522f 403a 9d8e e739
000002b0: 160a 0e3a 75e1 9abb a80a f639 e435 c13a
000002c0: 238f 833b 4fca b3ba 888c 64b8 a921 f33a
000002d0: 854a ef3a 1e7b e039 3027 2639 b205 6f3a
000002e0: 74be acba f554 103b 9946 9f3a 8816 0439
000002f0: 8c78 acb9 c5d1 9d39 f7f2 e5ba 1079 3139
00000300: 4c50 413a 1efc dd3a f68b 323a 12e4 1aba
00000310: 9e5d 9939 90f8 aaba 1c9a 05ba 43c9 353b
00000320: e364 093a 0e58 a439 7ac6 3d39 9240 4e3a
00000330: bca3 9d3a 31a4 003a 75b5 4b3a 6b2c 2b3b
00000340: 4373 213a a58f 2f3a 0fd7 3538 751b 643b
00000350: e2e2 d3b9 9a2c 15b9 1107 8db9 0197 dab9
00000360: e5ef 07bb 8877 a8ba 8e11 df39 cf57 d0ba
00000370: 0e9b 113a 620d 0db8 62e3 7539 4d2a e33a
00000380: 1b3a 8639 0169 3bba 7ca8 5a39 bced 533a
00000390: 358e 45b9 6f05 253a 2bc9 ee39 1126 993a
000003a0: 7545 983a ba31 83ba 4228 433b 4742 643a
000003b0: e931 143a 987a 0b3b 5a59 323b 957b a639
000003c0: b0e8 04ba 57d6 693b 59f6 2cba 6a8b cdb7
000003d0: c512 6bba 55c1 b8b8 bd7c 033b 53c2 0ebb
000003e0: cb27 81ba 1a14 b339 38a7 8f39 3e11 bc39
000003f0: ab00 fb39 90d4 81bb 5eda 333a 7253 c33a

linear1.bias f4 [80]
0.066623084 -0.0034975468 6.779061e-05 -9.2828355e-05 0.00018454129 0.00030593338 0.00073319924 0.00040896132
0.0007657638 -0.00020981405 -0.00037491793 -0.000383145 0.0012299735 0.0054469127 0.0018393114 -5.605617e-05
8.994789e-05 -0.0004883337 0.0005949986 0.00038553769 0.00074057636 -0.00061166193 0.00020514644 0.0006556548
0.0017377272 0.0007076869 -1.25035995e-05 0.001437787 -0.0067408876 -3.0609237e-05 0.0010860682 -0.00021858363
0.00010726232 8.84513e-05 -1.2350537e-05 0.0001792956 -0.0006280118 -0.0001146902 0.0005015714 -0.00043094248
-0.00029967522 -0.00021740237 -0.002021718 -0.0002981562 0.0016096979 -0.00015806845 0.0021140056 0.003543746
-0.00044610543 -7.563755e-05 -0.000117008356 0.00012936343 -4.8820508e-05 0.0018847801 -0.00064952404 -0.0005632657
-0.00044163244 0.0040139356 -0.00026014738 0.00037950018 0.000998714 0.0008163311 -6.9943036e-07 5.999932e-08
-0.00012993273 0.01349317 0.01217918 -0.0032298332 -0.06000098 0.000102764076 0.010621654 0.0024226743
-0.0018814643 0.00045634693 0.0011077573 0.00019768038 0.00016475968 0.0011890602 0.0005938123 0.0008394088
00000000: af71 883d 1937 65bb ce2a 8e38 d8ac c2b8
00000010: 6d81 4139 af65 a039 2b34 403a dc69 d639
00000020: 8abd 483a 8801 5cb9 a290 c4b9 dae0 c8b9
00000030: 1037 a13a 047c b23b 0d15 f13a db1d 6bb8
00000040: 68a2 bc38 8503 00ba aef9 1b3a fe21 ca39
00000050: 3d23 423a f057 20ba 941c 5739 40e0 2b3a
00000060: 73c4 e33a 1084 393a 8dc6 51b7 2074 bc3a
00000070: aae2 dcbb 6b62 00b8 675a 8e3a 9933 65b9
00000080: 05f2 e038 ee7e b938 2735 4fb7 4c01 3c39
00000090: 29a1 24ba d585 f0b8 e37b 033a 1ff0 e1b9
000000a0: ba1d 9db9 81f6 63b9 cd7e 04bb d951 9cb9
000000b0: 80fc d23a 2dbf 25b9 218b 0a3b 313e 683b
000000c0: 42e3 e9b9 9a9f 9eb8 6262 f5b8 bba5 0739
000000d0: 9fc4 4cb8 ba0a f73a d244 2aba 1fa8 13ba
000000e0: e78a e7b9 5587 833b 6464 88b9 a7f7 c639
000000f0: 48e7 823a 0eff 553a 7dc0 3bb5 fad8 8033
00000100: 8d3e 08b9 7512 5d3c 2f8b 473c 9cab 53bb
00000110: 96c3 75bd 0b83 d738 7206 2e3c bbc5 1e3b
00000120: 779b f6ba d941 ef39 2b32 913a 6c48 4f39
00000130: 57c3 2c39 3dda 9b3a 12aa 1b3a c50b 5c3a

output.weight f4 [80, 80]
0.047418803 -0.07538316 0.024920195 0.030258268 0.07832654 0.016686887 -0.0025161952 -0.10828662
-0.0075390935 0.06810957 -0.07104491 0.059479147 -0.03046219 -0.011462614 0.036205888 0.064710096
0.05458179 0.019242406 -0.039762966 0.07244161 -0.053688757 0.07375936 -0.016977787 0.098147705
0.038824007 -0.084023 0.01012294 0.047940105 0.034402013 0.053616554 0.07327862 -0.06554655
0.08304076 -0.044396847 -0.08618784 0.058040902 -0.10356873 -0.10537698 0.0369557 -0.06426841
0.02765286 -0.092214614 -0.09864766 -0.05474559 0.021814302 -0.10119688 -0.047826633 -0.10365262
-0.032881156 -0.031273797 0.06995916 0.052446947 0.016461521 0.026817068 0.054246858 -0.093983285
-0.10217835 -0.08488383 -0.00010100007 0.0090525 -0.058635954 -0.03476014 -0.1064634 -0.029898085
0.08099809 -0.04052627 0.08302252 0.03187722 0.10968648 -0.08474484 0.109465 0.050882697
0.0017934665 -0.05854936 0.050116077 0.024485916 -0.0048249364 -0.089632 0.038659707 -0.02612622
-0.08519405 -0.0469653 0.077270836 0.091345385 -0.008005969 -0.08493751 0.0370498 0.06665023
0.01574777 -0.09794463 -0.014035933 0.07349414 -0.102521494 0.008864962 -0.05353206 0.07671861
-0.10972051 0.068125844 0.09319049 -0.07053938 0.09232721 0.07826771 0.045203343 0.00078894943
0.107241675 -0.018720277 0.06613292 0.070059046 -0.09234185 0.038000688 0.0799672 -0.10786287
0.07393196 0.10766977 -0.042303897 0.079960495 0.09087911 -0.08935125 -0.031465963 0.08683263
0.058866948 -0.020565003 0.071192235 0.100654915 0.017111003 -0.04981287 0.05302781 -0.0811751
0.012150392 0.031245276 -0.094564915 -0.06700337 -0.042680636 -0.031992324 -0.011246502 0.0069921613
0.096352816 0.07511234 0.05826646 0.041849226 -0.035935283 -0.0946069 0.019573092 0.0693941
0.026445776 -0.01954493 0.022427812 -0.022968747 -0.052403472 0.0787887 0.008237749 -0.09603829
0.04623522 0.10901424 0.052333817 -0.071961224 0.101322204 -0.041647308 0.087261096 0.053557992
0.080463946 -0.04739538 -0.075048745 0.0684772 0.00077786297 -0.0069889277 0.018929288 -0.027469866
-0.06406495 -0.0060061067 -0.029631376 0.09719847 0.041447878 -0.10540521 -0.07006649 -0.032965377
0.0035761297 -0.085891455 -0.049691036 -0.09242813 -0.02684962 0.09390539 -0.08048603 -0.10713079
-0.022128895 0.035401657 -0.07180008 -0.09732297 0.106526 -0.08667862 -0.07335082 -0.020172
0.04496835 0.029624805 0.0627649 0.10559356 0.046932906 0.014191866 0.0018374398 0.02417931
-0.061762277 0.044940874 -0.020987675 0.03230518 0.073021874 0.046510622 0.044058695 0.04561092
0.057259947 0.012362763 0.050215766 -0.012371242 0.07946357 0.02022767 0.012483276 0.00087329
-0.00058243424 0.095691174 0.07536711 -0.07979952 -0.031820983 0.014705792 0.08238576 -0.023977533
0.03749302 0.038685873 -0.017850704 0.07500562 0.05437444 0.04600668 0.07777943 -0.02727656
0.01169271 -0.06848095 -0.104370505 -0.08132796 -0.10694241 0.0036552697 0.08869946 -0.08973761
-0.08046341 0.045458257 -0.015022978 0.07506931 -0.045121506 0.062057868 0.0050781295 -0.10654902
-0.004315302 0.0882806 -0.020535722 -0.048031166 0.05902183 0.03387162 -0.106905386 -0.013358697
00000000: 383a 423d 7c62 9abd 7025 cc3c 30e0 f73c
00000010: aa69 a03d f0b2 883c c0e6 24bb 60c5 ddbd
00000020: 800a f7bb 087d 8b3d fe7f 91bd 68a0 733d
00000030: d88b f9bc b0cd 3bbc a04c 143d ba86 843d
00000040: 2891 5f3d 40a2 9d3c 7ede 22bd 445c 943d
00000050: bee8 5bbd 260f 973d 0015 8bbc aa01 c93d
00000060: ec05 1f3d 4014 acbd b0da 253c d85c 443d
00000070: 20e9 0c3d 089d 5b3d 1a13 963d 453d 86bd
00000080: 4611 aa3d 78d9 35bd 4083 b0bd 4cbc 6d3d
00000090: d81b d4bd e3cf d7bd dc5e 173d 289f 83bd
000000a0: 4088 e23c 04db bcbd c907 cabd e93c 60bd
000000b0: e8b3 b23c 4f40 cfbd dce5 43bd d347 d4bd
000000c0: 64ae 06bd f418 00bd c046 8f3d 9cd2 563d
000000d0: 50da 863c 78af db3c f431 5e3d 4f7a c0bd
000000e0: e242 d1bd 93d7 adbd 00d0 d3b8 f050 143c
000000f0: 412c 70bd a660 0ebd 7c09 dabd d4ec f4bc
00000100: 54e2 a53d e0fe 25bd b607 aa3d b091 023d
00000110: 4ea3 e03d b48e adbd 302f e03d 606a 503d
00000120: c012 eb3a 74d1 6fbd 8446 4d3d b096 c83c
00000130: 801a 9ebb fb90 b7bd a459 1e3d a806 d6bc
00000140: 387a aebd b05e 40bd 2c40 9e3d 4a13 bb3d
00000150: 782b 03bc b8f3 adbd 88c1 173d ea7f 883d
00000160: 7801 813c 3297 c8bd f8f6 65bc 1884 963d
00000170: caf6 d1bd 583e 113c 6f44 5bbd a61e 9d3d
00000180: 26b5 e0bd 9085 8b3d a8da be3d f376 90bd
00000190: 0c16 bd3d d24a a03d 2427 393d 80d1 4e3a
000001a0: 86a1 db3d 445b 99bc b270 873d 1e7b 8f3d
000001b0: b91d bdbd 9ca6 1b3d d8c5 a33d 35e7 dcbd
000001c0: a469 973d f881 dc3d da46 2dbd 54c2 a33d
000001d0: d41e ba3d cafd b6bd 74e2 00bd 4ed5 b13d
000001e0: 781e 713d f077 a8bc 3ccd 913d 2a24 ce3d
000001f0: 602c 8c3c 9408 4cbd b033 593d 213f a6bd
00000200: 7012 473c 18f6 ff3c 40ab c1bd 1039 89bd
00000210: e4d1 2ebd 620a 03bd 4043 38bc 801e e53b
00000220: a054 c53d 80d4 993d d0a8 6e3d 186a 2b3d
00000230: e030 13bd 43c1 c1bd c057 a03c 7e1e 8e3d
00000240: d0a4 d83c b01c a0bc 88ba b73c f428 bcbc
00000250: 06a5 56bd f85b a13d a0f7 063c b9af c4bd
00000260: 2461 3d3d dc42 df3d fc5b 563d 6860 93bd
00000270: 0482 cf3d 5e96 2abd f2b5 b23d a05f 5b3d
00000280: 48ca a43d a821 42bd 28b3 99bd c63d 8c3d
00000290: 80e9 4b3a 6003 e5bb 9811 9b3c 7c08 e1bc
000002a0: 7c34 83bd e0ce c4bb 80bd f2bc fe0f c73d
000002b0: 40c5 293d b0de d7bd 057f 8fbd b406 07bd
000002c0: 805d 6a3b dce7 afbd d488 4bbd f64a bdbd
000002d0: bcf3 dbbc 7851 c03d dcd5 a4bd 6367 dbbd
000002e0: a847 b5bc 5401 113d ec0b 93bd 4451 c7bd
000002f0: 4e2a da3d 8f84 b1bd f438 96bd c03f a5bc
00000300: bc30 383d b8af f23c e28a 803d 7041 d83d
00000310: b83c 403d 0085 683c 40d6 f03a b013 c63c
00000320: 71fa 7cbd ec13 383d 58ee abbc 7052 043d
00000330: 7e8c 953d ec81 3e3d e476 343d 84d2 3a3d
00000340: 6889 6a3d 308d 4a3c 0caf 4d3d c0b0 4abc
00000350: ccbd a23d 80b4 a53c a886 4c3c 80ed 643a
00000360: 80ae 18ba bcf9 c33d 125a 9a3d ee6d a3bd
00000370: b856 02bd 90f0 703c deb9 a83d 886c c4bc
00000380: 4892 193d 1475 1e3d a43b 92bc 8c9c 993d
00000390: bcb7 5e3d 8071 3c3d d24a 9f3d 1873 dfbc
000003a0: c892 3f3c be3f 8cbd 34c0 d5bd 468f a6bd
000003b0: 9f04 dbbd 408d 6f3b 10a8 b53d 5ac8 b7bd
000003c0: 00ca a4bd 7032 3a3d f022 76bc f0bd 993d
000003d0: 54d1 38bd 6430 7e3d 7066 a63b 5f36 dabd
000003e0: 6067 8dbb 76cc b43d 883a a8bc 54bc 44bd
000003f0: e0c0 713d f8bc 0a3d 36f1 dabd 70de 5abc

output.bias f4 [80]
0.029289484 -0.016536891 0.029445514 0.10316759 -0.007431403 0.06443472 -0.09124845 0.057443276
-0.09105364 -0.10208427 0.061662182 0.07669425 0.009470932 0.067703694 -0.09844394 -0.014701478
-0.05213723 0.02924709 0.09513515 -0.0032777712 -0.049961075 0.022247389 0.034267828 -0.08676529
0.082680404 -0.05233146 0.05700153 0.08988626 -0.04100708 0.0011428222 -0.046475187 0.096796766
0.046857744 -0.053154424 -0.08045857 0.034315884 0.013534635 0.09506607 0.037223116 0.09215815
0.008774757 0.018310457 0.07198043 0.025539607 -0.10738096 0.10083884 0.057643116 -0.030376665
0.060332447 0.009354942 0.08990608 0.061908007 0.03951703 -0.04015685 -0.07611543 -0.10265152
-0.056772057 -0.044773094 0.060000062 0.053423986 -0.08301823 0.089185804 0.053850785 -0.014154114
0.08789693 0.04123974 0.024429157 0.08882286 0.045390025 -0.055782985 -0.051991664 0.025999248
-0.056250107 -0.057941403 -0.0044864565 0.0105407685 -0.10139083 0.06394507 0.019127265 -0.07772208
00000000: 80f0 ef3c 6078 87bc b837 f13c 8849 d33d
00000010: 2083 f3bb 5af6 833d 78e0 babd a449 6b3d
00000020: 557a babd 8f11 d1bd 7c91 7c3d e011 9d3d
00000030: f82b 1b3c 3ca8 8a3d fa9c c9bd 78de 70bc
00000040: d98d 55bd 9897 ef3c 38d6 c23d e0cf 56bb
00000050: fca3 4cbd 2840 b63c 6c5c 0c3d 00b2 b1bd
00000060: 5854 a93d 8359 56bd 707a 693d 4a16 b83d
00000070: 0af7 27bd c0ca 953a c45c 3ebd 623d c63d
00000080: e8ed 3f3d 74b8 59bd 76c7 a4bd d08e 0c3d
00000090: 60c0 5d3c 00b2 c23d 4477 183d 6abd bc3d
000000a0: 00c4 0f3c d0ff 953c 7a6a 933d 7038 d13c
000000b0: 8cea dbbd 9884 ce3d 301b 6c3d 7cd8 f8bc
000000c0: 281f 773d 7845 193c ae20 b83d 4093 7d3d
000000d0: 9cdc 213d 827b 24bd 68e2 9bbd f63a d2bd
000000e0: d189 68bd fe63 37bd a0c2 753d 1cd3 5a3d
000000f0: 7605 aabd 0ca7 b63d a492 5c3d a8e6 67bc
00000100: 4e03 b43d 00eb 283d a81f c83c c2e8 b53d
00000110: e4ea 393d b37c 64bd 36f5 54bd 60fc d43c
00000120: 8366 66bd f753 6dbd 2003 93bb 30b3 2c3c
00000130: ffa5 cfbd a2f5 823d c8b0 9c3c c12c 9fbd
