Data/f2_HIV/8_LazyNet1_trainset2_1X2Xe4bsize2@0.0001_log_cuda1.pth (torch, 14562 bytes, 12 tensors)

denselog_layers.0.weight f4 [19, 19]
0	0xbdc0b3e7	-0.09409314
1	0x3e8f23d3	0.2795702
2	0x3e8ae46b	0.27127394
3	0xbdaa5cf5	-0.083185114
4	0x3c2097ab	0.009801785
5	0x3e984bcd	0.2974533
6	0x3e26da67	0.16294251
7	0xbd22f70a	-0.039786376
8	0x3ed6fe44	0.41990864
9	0x3d9ec044	0.077515155
10	0x3e9227ee	0.2854609
11	0x3e8248ed	0.25446263
12	0xbe1077a5	-0.14108141
13	0x3d12c028	0.035827786
14	0xbcb7fff6	-0.022460919
15	0x3cec71d5	0.028862873
16	0x3e8f81d6	0.28028744
17	0x3ed0b46c	0.4076265
18	0xbdc092aa	-0.09402974
19	0xbdc36690	-0.095410466
20	0xbe97f0df	-0.29675958
21	0xbc685aca	-0.014181802
22	0x3b140c85	0.002259047
23	0xbda8cb51	-0.082419045
24	0xbe6cba71	-0.23117997
25	0x3da972a3	0.08273818
26	0xbde73696	-0.11289708
27	0xbdaf55ae	-0.08561264
28	0xbeadd180	-0.33948898
29	0xbe747237	-0.23871695
30	0xbc5e10c3	-0.013553801
31	0x3d77a686	0.060461544
32	0x3e0c887c	0.1372394
33	0xbe9d9eab	-0.30785117
34	0xbe9a4a49	-0.301348
35	0xbd155b19	-0.03646383
36	0x3d2d24ba	0.042271353
37	0xbd5fa9ab	-0.054605167
38	0xbe47bd7b	-0.19505875
39	0x3e35cedd	0.17754693
40	0x3d57679a	0.052589037
41	0xbe01e287	-0.1268407
42	0x3e636e8f	0.22210144
43	0x3d97ea90	0.07417786
44	0xbe44db09	-0.1922418
45	0x3d02711e	0.03184616
46	0x3ea82302	0.3283921
47	0xbeb55420	-0.35415745
48	0xbdd70312	-0.104986325
49	0xbd05d2d7	-0.032671776
50	0xbd400c40	-0.046886683
51	0x3e354ce2	0.1770511
52	0x3df9e2e0	0.12201476
53	0xbe3e2a13	-0.18570738
54	0x3e32bf64	0.17455822
55	0x3ea9dcd0	0.3317628
56	0xbd9124cd	-0.07087097
57	0xbde66fe9	-0.11251814
58	0x3cf0bc3b	0.02938663
59	0x3dae98f0	0.08525264
60	0xbe5ce358	-0.215711
61	0xbd6aeece	-0.05735665
62	0xbcb6adc3	-0.022299653
63	0xbc852ebb	-0.016257634
64	0xbe91e459	-0.28494528
65	0xbe930bb3	-0.28719863
66	0xbe971585	-0.29508606
67	0x3dfececf	0.12441789
68	0xbe82d1ef	-0.25550792
69	0x3d0bea72	0.03415913
70	0xbdadc460	-0.08484721
71	0xbe501e5b	-0.2032408
72	0xbe424c99	-0.18974532
73	0x3dbefbb9	0.09325356
74	0xbe0f2a07	-0.13980876
75	0xbe96ce70	-0.29454374
76	0xbcd8e7fc	-0.026477806
77	0xbea2cbf6	-0.31796235
78	0xbe8dd5ef	-0.2770228
79	0xbde852dc	-0.11343929
80	0xbd71006c	-0.058838293
81	0xbe3ec311	-0.186291
82	0xbd67204a	-0.056427278
83	0xbe2bbf59	-0.16772212
84	0x3d0f6deb	0.035016935
85	0xbe83bd7b	-0.257305
86	0xbe99d1dc	-0.30042922
87	0x3d84a97d	0.0647764
88	0xbc7a9666	-0.015294647
89	0xbd9f1bdc	-0.07768986
90	0xbe04e04b	-0.12976186
91	0xbebef495	-0.37295976
92	0xbe2a1462	-0.16609338
93	0xbe1471e1	-0.14496566
94	0x3ca69f50	0.020339638
95	0xbdbd2493	-0.092354916
96	0xbd892da7	-0.066981606
97	0x3de4669f	0.11152386
98	0xbe2bca53	-0.167764
99	0x3c009f44	0.007850472
100	0xbd9125cf	-0.070872895
101	0xbe806df6	-0.25083894
102	0x3d022b66	0.03177967
103	0xbea61c90	-0.32443666
104	0x3c8cb0ca	0.017174143
105	0xbe84777d	-0.25872412
106	0xbd7cd470	-0.061726034
107	0xbe7fefbe	-0.24993798
108	0x3d656835	0.056007583
109	0x3c32b98f	0.010908498
110	0x3ca29270	0.019845217
111	0xbe70b2e1	-0.23505737
112	0xbe775f1e	-0.24157378
113	0xbea59df9	-0.32347086
114	0xbcbe48cd	-0.023228073
115	0x3d6e2051	0.058136288
116	0xbae32dc1	-0.0017332361
117	0xbe81991e	-0.25312132
118	0xbe4ec8b2	-0.20193747
119	0xbdb3ac89	-0.08773143
120	0xbe06422e	-0.13111183
121	0x3c1f16b1	0.00971
122	0xbd10ab76	-0.035319768
123	0xbe599613	-0.21248655
124	0xbdfaae73	-0.12240305
125	0xbe81b57a	-0.25333768
126	0xbea72771	-0.3264728
127	0x3e17a0a7	0.14807378
128	0xbe1af549	-0.15132631
129	0xbdece2b7	-0.1156668
130	0xbe8121b5	-0.2522103
131	0x3e08bba8	0.13352835
132	0x3d44a9ef	0.048013624
133	0xbe03c7ab	-0.12869136
134	0xbee6e16b	-0.45093855
135	0xbe83ab32	-0.2571655
136	0xbd4e4700	-0.05036068
137	0xbec4868c	-0.383839
138	0xbe60f233	-0.21967392
139	0x3e361fa9	0.17785515
140	0xbed41942	-0.4142552
141	0x3cac399b	0.021023562
142	0xbcfd473c	-0.030917756
143	0xbe46e79c	-0.1942429
144	0xbee5618c	-0.44800985
145	0xbe69ed45	-0.22844417
146	0xbefd3477	-0.4945409
147	0xbe9fa4be	-0.31180376
148	0x3e54e36a	0.20789877
149	0xbee20522	-0.4414454
150	0xbea96d0d	-0.33091012
151	0xbd881fac	-0.06646666
152	0xbd244551	-0.040105168
153	0xbe84670b	-0.25859866
154	0x3b8ebe02	0.004356147
155	0xbd94c7ae	-0.072646484
156	0x3c64967a	0.013951892
157	0x3e0b8881	0.13626291
158	0xbdb48507	-0.088144355
159	0x3e44ce6f	0.19219373
160	0xbe54ff85	-0.20800598
161	0xbdb7a286	-0.08966546
162	0xbe3faef0	-0.18719077
163	0x3e72d5fa	0.23714438
164	0xbe12fe82	-0.143549
165	0x3c590dea	0.013247946
166	0xbbd4e9aa	-0.0064975815
167	0xbda34874	-0.07972804
168	0x3df2711c	0.1183798
169	0xbd254625	-0.0403501
170	0xbd8307f5	-0.06398002
171	0xbd035fa7	-0.032073643
172	0x3cc55dd1	0.024092587
173	0xbd9d43b7	-0.07678931
174	0xbe70dad6	-0.2352098
175	0x3d273899	0.04082546
176	0xbea17d7c	-0.3154105
177	0xbe06f13f	-0.13177966
178	0xbdd182a0	-0.10229993
179	0x3d388267	0.045046236
180	0xbe590c2a	-0.21196046
181	0xbe348170	-0.17627501
182	0x3e10e103	0.14148335
183	0xbe96a7c2	-0.29424864
184	0xbe4a692a	-0.1976668
185	0xbd50511e	-0.05085861
186	0xbe3e376f	-0.18575834
187	0xbc752154	-0.014961559
188	0xbe59b8ce	-0.21261904
189	0xbe981650	-0.29704523
190	0x3d3ed340	0.046588182
191	0xbe59c826	-0.21267757
192	0xbe035ce9	-0.12828411
193	0xbe3626cd	-0.17788239
194	0xbd231c7a	-0.03982208
195	0xbe912b25	-0.2835323
196	0xbe92b8c7	-0.286566
197	0x3ccc7459	0.024957823
198	0x3ce5f1c5	0.028069386
199	0xbe7ece8a	-0.24883476
200	0x382174ef	3.8494294e-05
201	0x3b13a62e	0.002252947
202	0xbe698704	-0.2280541
203	0xbe3f49d5	-0.18680508
204	0x3dcb81a1	0.09936834
205	0xbd96858d	-0.073496915
206	0xbda35f9c	-0.079772204
207	0xbc8e8a6b	-0.017399987
208	0xbd3d83df	-0.04626834
209	0xbe168b1d	-0.14701505
210	0x3e961348	0.29311585
211	0x3e3e9730	0.18612361
212	0xbd748202	-0.059694298
213	0x3dd1eaa0	0.10249829
214	0x3e12bdd6	0.14330229
215	0xbe640d26	-0.2227064
216	0x3ec1a9b9	0.378248
217	0xbdcfe52b	-0.10151132
218	0xbe189b77	-0.14903055
219	0x3ea2726f	0.3172793
220	0x3b372007	0.0027942674
221	0xbcb53d4c	-0.022123955
222	0x3e6a8fa0	0.22906351
223	0x3daa335b	0.083105765
224	0xbdabdc5a	-0.08391638
225	0x3e8e30ed	0.27771702
226	0x3e008920	0.12552309
227	0x3c2e3819	0.010633492
228	0xbe834753	-0.25640354
229	0x3dd15f55	0.10223261
230	0xbe113386	-0.14179811
231	0xbcbfcfe9	-0.023414569
232	0x3c289661	0.010289759
233	0x3da3eece	0.08004533
234	0x3d7d6e54	0.061872795
235	0x3d1b0bea	0.03785316
236	0xbe057bfc	-0.13035578
237	0xbe425f71	-0.1898172
238	0x3e0d85f0	0.13820624
239	0xbdc5806e	-0.09643637
240	0xbc9e5ec3	-0.019332295
241	0xbd8495ff	-0.06473922
242	0xbdd08a6f	-0.10182654
243	0x3d8546f6	0.06507675
244	0xbc3683ad	-0.011139792
245	0xbb88def5	-0.004176969
246	0xbe032c82	-0.12809947
247	0xbd7c070f	-0.06153017
248	0xbd8f7348	-0.0700441
249	0xbddce70a	-0.10786255
250	0xbd66a492	-0.05630929
251	0x3e2975c7	0.16548835
252	0xbe262efa	-0.16228858
253	0xbcb70161	-0.022339525
254	0x3d8774e3	0.06614091
255	0x3dd22492	0.102608815

denselog_layers.0.bias f4 [19]
0	0xbdb5a17a	-0.0886869
1	0x3d1973fe	0.037464134
2	0xbeac106d	-0.33606282
3	0xbdbf50c8	-0.0934158
4	0x3ce9558b	0.028483173
5	0xbc43496a	-0.011919359
6	0xbecbd699	-0.39812163
7	0x3d970079	0.07373137
8	0x3ca1ffbb	0.019775262
9	0xbce7bf1e	-0.028289374
10	0xbe6eb67a	-0.23311797
11	0xbc171b30	-0.009222791
12	0xbe68e4b4	-0.22743493
13	0xbca8f05e	-0.020622429
14	0xbd9d3f7c	-0.07678124
15	0xbe467933	-0.19382171
16	0xbd32c505	-0.043644924
17	0xbee91fdb	-0.45532116
18	0xbe951a33	-0.2912155

denselog_layers.1.weight f4 [19, 19]
0	0x3e03979d	0.12850805
1	0x3df38090	0.11889756
2	0xbe6d457d	-0.23171039
3	0xbe7c2d60	-0.24626684
4	0xbe576a72	-0.210367
5	0xbd095fc1	-0.033538584
6	0x3dd694b8	0.104775846
7	0xbe28ff58	-0.16503656
8	0x3de2b5d3	0.110698365
9	0xbdbaebb2	-0.091269866
10	0x3c8ad2a8	0.016946152
11	0xbe78d142	-0.24298576
12	0xbd4d1e17	-0.050077524
13	0xbe9e0bd7	-0.30868408
14	0x3cf44213	0.029816663
15	0x3d6c1701	0.057639126
16	0xbe7d8fb8	-0.24761856
17	0x3e1b880e	0.1518862
18	0xbcff6a5c	-0.031178646
19	0xbd0220a7	-0.03176942
20	0x3e05ae0a	0.13054672
21	0x3e03d1f9	0.12873067
22	0xbdbc4ff7	-0.091949396
23	0xbd93126d	-0.07181249
24	0xbdc20e53	-0.094753884
25	0xbda248db	-0.07924052
26	0x3cd33587	0.02578236
27	0xbdef8cc4	-0.11696771
28	0xbd8100b2	-0.06298961
29	0xbe2b12a6	-0.16706333
30	0xbe329cad	-0.1744258
31	0xbe51ec3e	-0.20500275
32	0xbe3d007d	-0.18457218
33	0x3d02f618	0.031972975
34	0xbe1a14f3	-0.15047054
35	0xbea9b88f	-0.3314862
36	0x3de2a809	0.110672064
37	0xbea01194	-0.3126341
38	0xbeff2b7b	-0.4983786
39	0xbe1c0cda	-0.15239277
40	0x3eca01ff	0.39454648
41	0xbcfd255e	-0.030901607
42	0x3e8417d6	0.25799435
43	0xbe7ad837	-0.24496542
44	0xbd2842d0	-0.041079342
45	0xbebfdaf4	-0.37471735
46	0x3e07252e	0.13197777
47	0xbec85832	-0.39129788
48	0xbdebab25	-0.115072526
49	0xbcb3eca5	-0.021963427
50	0xbe3ad6d4	-0.18246013
51	0x3e13ba80	0.14426613
52	0xbe6a67ed	-0.22891207
53	0x3cacebda	0.021108557
54	0xbdb1aad4	-0.08675161
55	0xbe7dc63a	-0.24782649
56	0xbe4e2f89	-0.2013532
57	0xbe4242db	-0.18970816
58	0xb9f8502a	-0.00047361973
59	0x3c434906	0.011919266
60	0xbd2f9ce3	-0.04287423
61	0xbe4cb318	-0.19990194
62	0x3ae70509	0.0017625402
63	0xbc2c6139	-0.010521227
64	0xbab5e146	-0.0013876341
65	0xbcf0cc55	-0.029394308
66	0xbc9cd058	-0.019142315
67	0x3dcf9ce9	0.1013735
68	0x3cd23d7e	0.025664087
69	0xbd80daa2	-0.06291701
70	0xbe866816	-0.26251286
71	0xbcd96e56	-0.02654187
72	0x3bda722f	0.006666444
73	0xbe46be03	-0.19408421
74	0x3d6b3337	0.05742189
75	0xbd9f61cf	-0.077823274
76	0xbcf69780	-0.030101538
77	0xbe228651	-0.1587155
78	0xbe8e5507	-0.27799246
79	0x3c81b1d6	0.01583187
80	0xbe8a18e1	-0.26972106
81	0x3e121056	0.14264044
82	0xbdb55ded	-0.088558055
83	0x3de56907	0.11201673
84	0xbc3d72dd	-0.01156303
85	0xbe1d226a	-0.15345159
86	0x3d12dc6d	0.035854746
87	0xbe004578	-0.125265
88	0x3d5d671d	0.054053415
89	0xbeb59a1c	-0.3546914
90	0xbd31db78	-0.043422192
91	0xbe2da064	-0.16955715
92	0xbe71c44f	-0.23610042
93	0xbe9e1fd0	-0.30883646
94	0xbdf35f57	-0.11883419
95	0xbe7ddb5a	-0.24790707
96	0xbe2e5c05	-0.1702729
97	0x3ded1d0e	0.11577807
98	0xbf48d3e0	-0.78448296
99	0x3dcc38a2	0.09971739
100	0xbe9b381b	-0.30316243
101	0xbe521ed9	-0.2051958
102	0xbe00db77	-0.12583719
103	0xbeff0481	-0.49808124
104	0xbeba297d	-0.36359778
105	0xbce42071	-0.0278475
106	0x3e081b01	0.13291551
107	0xbd07f4af	-0.033192333
108	0x3dd9119d	0.105990626
109	0x3e16c35c	0.14722961
110	0xbe4d8a28	-0.20072234
111	0xbe26d2a2	-0.16291288
112	0xbef19516	-0.47184056
113	0xbe1a2bdb	-0.15055792
114	0xbe9a2ed4	-0.30113852
115	0x3d3dbcf5	0.04632278
116	0xbeb804d4	-0.35941184
117	0x3cebaeaa	0.02876981
118	0xbe83932a	-0.25698215
119	0xbe3c86a1	-0.18410732
120	0x3e1ec890	0.15506196
121	0xbe3e8f3a	-0.18609324
122	0x3d54a138	0.051911563
123	0xbea755aa	-0.32682544
124	0x3d7d89f2	0.061899133
125	0x3d17403b	0.03692649
126	0xbdac9678	-0.08427137
127	0xbe4fedee	-0.20305607
128	0xbdc92ab4	-0.09822598
129	0xbdd9f427	-0.106422715
130	0xbd9269a9	-0.07149059
131	0xbd0f4add	-0.034983505
132	0x3db08652	0.086193696
133	0x3d9a7700	0.07542229
134	0xbd5ef338	-0.05443117
135	0xbe34dab3	-0.17661552
136	0xbd9bf268	-0.07614595
137	0xbd9f3e76	-0.07775585
138	0x3d89877b	0.06715294
139	0xbae24ae5	-0.0017264752
140	0xbe4b94df	-0.19881009
141	0xbe20fe55	-0.1572202
142	0xbdd64d56	-0.104639694
143	0xbe43c14e	-0.19116709
144	0xbe269899	-0.16269149
145	0xbc992073	-0.01869223
146	0xbe31b768	-0.1735512
147	0x3e1894b3	0.14900474
148	0xbe2bdf4c	-0.167844
149	0x3dcbb460	0.09946513
150	0x3e59d362	0.21272042
151	0xbe387528	-0.18013442
152	0x3d8e317e	0.06943034
153	0xbe46ef85	-0.19427307
154	0xbe6f8364	-0.23389965
155	0xbe7d88fa	-0.24759284
156	0xbe692791	-0.22769
157	0xbe2983e8	-0.16554224
158	0x3e2780b4	0.1635769
159	0xbe5da72a	-0.216458
160	0xbe16f31d	-0.14741178
161	0xbd6a9d02	-0.05727864
162	0x3df22462	0.11823346
163	0x3e7d2a0f	0.24723075
164	0x3e1eaa2f	0.15494607
165	0xbd264b20	-0.04059899
166	0x3de2fc2f	0.110832565
167	0x3e1b3207	0.15155803
168	0xbd73508e	-0.059402995
169	0x3e630449	0.22169603
170	0xbcd44d26	-0.025915693
171	0x3dde64ed	0.10859094
172	0x3cf7a2a9	0.03022893
173	0xbd8965e0	-0.06708884
174	0xbe73f5a3	-0.23824172
175	0x3cf4cdc4	0.029883273
176	0x3e03a6ec	0.12856644
177	0x3c6adbea	0.014334658
178	0xbea8baa8	-0.32954907
179	0x3cd10317	0.025514169
180	0xbe3152b2	-0.17316702
181	0xbe4f0252	-0.20215729
182	0xbda7c302	-0.08191492
183	0xbdb3ae83	-0.0877352
184	0xbe0dd105	-0.13849266
185	0xbba6a01c	-0.0050850045
186	0xbe92db6c	-0.2868303
187	0xbe665aea	-0.22495618
188	0xbe7eb687	-0.24874316
189	0xbe6164f0	-0.22011161
190	0xbddcf97d	-0.107897736
191	0xbd8b2374	-0.067938715
192	0xbe3bce57	-0.18340431
193	0xbdb1b680	-0.08677387
194	0xbe1abcdb	-0.15111105
195	0xbea46fb0	-0.3211646
196	0xbe34f0e4	-0.17670017
197	0xbea82d92	-0.32847267
198	0xbe8d5a2f	-0.27607867
199	0xbdc4604a	-0.09588678
200	0xbec075f0	-0.3758998
201	0x3d08b87b	0.03337906
202	0xbea09362	-0.31362444
203	0xbb6e021b	-0.0036317173
204	0xbc84f161	-0.01622838
205	0xbd832d8b	-0.06405171
206	0xbda0debe	-0.07854985
207	0xbeece211	-0.46266225
208	0xbcaeea4e	-0.02135196
209	0x3d8f20f7	0.069887094
210	0x3d83fa04	0.06444171
211	0xbe1d4511	-0.15358378
212	0xbdcdff8b	-0.100585066
213	0xbe87a3c3	-0.26492128
214	0xbe549bd1	-0.20762564
215	0x3e290a0e	0.16507742
216	0x3ce259b3	0.027630663
217	0xbd86def3	-0.06585493
218	0xbe091729	-0.13387741
219	0xbd8074e9	-0.06272299
220	0xbdde5990	-0.108569264
221	0x3cd516d7	0.026011867
222	0xbe32e07c	-0.17468446
223	0xbd512384	-0.05105926
224	0xbcc1ff49	-0.0236813
225	0xbe26047d	-0.1621265
226	0xbe3cd9bd	-0.18442436
227	0xbe6fbbb4	-0.23411447
228	0xbe0b32dc	-0.1359362
229	0x3d6cc148	0.057801515
230	0x3dfecfa0	0.12441945
231	0xbdd4e87d	-0.10395906
232	0x3c0e2e41	0.00867802
233	0xbdc04ac1	-0.09389258
234	0x3de3c1a1	0.11120916
235	0x3c9924e6	0.018694352
236	0xbe8348bf	-0.25641438
237	0xbe246c61	-0.16056968
238	0xbd767a36	-0.060175143
239	0x3c75c8f1	0.015001521
240	0xbea31a40	-0.31855965
241	0xbe5e5b43	-0.21714501
242	0xbd82be02	-0.06383897
243	0xbd8d253a	-0.06891866
244	0x3d9a8475	0.075447954
245	0xbe6ca67d	-0.23110385
246	0x3e335f21	0.17516758
247	0xbe3d126a	-0.18464056
248	0x3c675c77	0.014121166
249	0xbd7af902	-0.06127263
250	0xbeb8d423	-0.36099347
251	0xbe162271	-0.14661576
252	0x3d03feb9	0.032225344
253	0x3e1c60c2	0.15271285
254	0xbe74bec5	-0.23900898
255	0xbda130b8	-0.078706205

denselog_layers.1.bias f4 [19]
0	0xbe76eec1	-0.24114515
1	0x3cc8cf48	0.024512902
2	0xbd692001	-0.056915287
3	0xbdc7359b	-0.09727021
4	0x3dc56fcc	0.09640464
5	0x3df3e26b	0.1190842
6	0x3e1661e2	0.14685777
7	0xbe409ec1	-0.1881056
8	0x3c869208	0.016427055
9	0xbe44329f	-0.19159935
10	0xbd807aaa	-0.06273396
11	0xbe4bb338	-0.19892585
12	0xbc8fd0cb	-0.017555615
13	0x3de4d147	0.11172729
14	0xbdb8dfbd	-0.0902705
15	0x3da9f95d	0.082995154
16	0xbbe90c34	-0.0071120504
17	0xbdc30fbb	-0.09524485
18	0x3c05b142	0.008159937

denseexp_layers.0.weight f4 [19, 19]
0	0xbd9fb920	-0.07798982
1	0xbdc1ba71	-0.09459389
2	0x3c15bd7f	0.009139418
3	0xbe37778a	-0.17916694
4	0x3e13658a	0.14394203
5	0xbdcae967	-0.09907799
6	0xbde2f297	-0.110814266
7	0x3d3b7b48	0.045771867
8	0x3d8e145c	0.06937477
9	0xbe07da6a	-0.13266912
10	0x3da03ecc	0.078244776
11	0xbc9a5e86	-0.0188439
12	0xbe90cfb3	-0.28283462
13	0xbe4e804a	-0.20166126
14	0xbdc4772d	-0.095930435
15	0xbe15ee5f	-0.14641713
16	0x3de2e3b0	0.11078584
17	0x3b4b8bb1	0.0031058604
18	0xbe8cd041	-0.27502635
19	0x3d94a580	0.07258129
20	0x3d06001d	0.03271495
21	0x3dde82f4	0.10864821
22	0x3e4d401c	0.20043987
23	0x3d44bd99	0.048032377
24	0xbd81d05b	-0.06338569
25	0xbe126b05	-0.14298637
26	0x3e092cae	0.1339595
27	0xbddf1321	-0.108923204
28	0xbd9d56f0	-0.07682598
29	0x3e66d649	0.22542681
30	0x3de49338	0.11160892
31	0x3d08676b	0.033301752
32	0x3e154fe9	0.14581265
33	0x3da93c98	0.082635105
34	0x3dde6740	0.10859537
35	0xbe1044ab	-0.14088695
36	0xbdc242d6	-0.09485404
37	0xbe1271d0	-0.14301229
38	0x3e8068e6	0.2508003
39	0xbe94bb15	-0.29048982
40	0x3e057b2d	0.13035269
41	0xbcece50e	-0.028917816
42	0xbeaf010b	-0.34180483
43	0xbdf75dcc	-0.12078437
44	0xbec12263	-0.37721547
45	0x3d6ff726	0.05858531
46	0xbd37f90d	-0.044915248
47	0x3d280660	0.041021705
48	0xbe6710d4	-0.22565013
49	0x3db519a7	0.088427834
50	0x3c51ea4b	0.012812207
51	0xbec91c04	-0.39279187
52	0xbeac1eb3	-0.33617172
53	0x3c18be61	0.009322734
54	0xbe14b0de	-0.14520594
55	0x3e7dc0c7	0.2478057
56	0xbc88fb70	-0.016721457
57	0xbe9f359e	-0.31095594
58	0x3d68ad88	0.056806117
59	0xbdc6722d	-0.09689746
60	0xbe2a2c63	-0.16618495
61	0x3d576f64	0.052596465
62	0xbe012a28	-0.12613738
63	0xbd278cdf	-0.04090583
64	0xbd6b3495	-0.057423193
65	0xbd802583	-0.06257155
66	0xbe317edb	-0.17333548
67	0xbe74143b	-0.23835842
68	0xbdef8071	-0.1169442
69	0xbe13acbe	-0.14421365
70	0xbe8aa1a6	-0.27076453
71	0xbe6c30d4	-0.23065501
72	0xbd6739e6	-0.0564517
73	0xbe264562	-0.16237405
74	0x3cd0dd76	0.025496226
75	0xbe4430a5	-0.19159181
76	0x3b65d7e5	0.003507131
77	0xbea9dd2c	-0.33176553
78	0x3e623210	0.2208941
79	0xbe0d7789	-0.1381513
80	0x3da567f0	0.08076465
81	0xbeb09cb6	-0.3449456
82	0xbe603ce4	-0.21898228
83	0xbe085ec4	-0.133174
84	0xbdb33ecb	-0.08752211
85	0xbd95f8e5	-0.073228635
86	0xbe21464e	-0.15749475
87	0x3ea7f902	0.32807165
88	0xbe812c04	-0.25228894
89	0xbe6e5574	-0.23274785
90	0xbe6318bf	-0.22177409
91	0x3d09cb34	0.033641055
92	0xbe7b24b5	-0.24525721
93	0x3b1ff2e2	0.0024406244
94	0xbd3f408a	-0.04669241
95	0x3e0869b2	0.1332157
96	0x3c9d2930	0.019184679
97	0x3e498912	0.19681194
98	0xbcdb5778	-0.026775107
99	0x3e31cc17	0.1736301
100	0x3d82a6d6	0.06379478
101	0xbe36d013	-0.17852812
102	0xbe13c790	-0.14431596
103	0xbe46c311	-0.1941035
104	0x3c94dfd1	0.01817313
105	0x3e12b663	0.14327388
106	0x3dbcb79a	0.09214707
107	0xbd8f6c22	-0.070030466
108	0xbe2f403d	-0.17114349
109	0xbdef5942	-0.116869465
110	0xbe6119eb	-0.21982543
111	0xbe7b5a15	-0.24546082
112	0x3d9b999c	0.07597658
113	0x3c8f0b78	0.017461523
114	0xbe0b5306	-0.1360589
115	0x3dee0afd	0.116231896
116	0xbe546b95	-0.20744164
117	0xbe3f51d8	-0.18683565
118	0xbd47ce58	-0.04878077
119	0x3e3341f6	0.17505631
120	0x3c30a948	0.010782547
121	0xbdb4e96f	-0.088335864
122	0x3e2a33de	0.16621348
123	0x3cd64b55	0.026158968
124	0x3d8c5953	0.06852975
125	0xbe0f4170	-0.13989806
126	0xbdf7b125	-0.120943345
127	0xbe22207f	-0.15832709
128	0x3df3929e	0.118931994
129	0x3e274abb	0.16337101
130	0x3e80a3fa	0.25125104
131	0xbe4e561e	-0.20150039
132	0x3e51a8ab	0.20474498
133	0x3dac06ab	0.08399709
134	0x3d26afaf	0.04069489
135	0x3b9eef5e	0.004850312
136	0x3df33091	0.11874498
137	0x3e14a010	0.14514184
138	0xbdf999cc	-0.121875376
139	0xbd512149	-0.051057134
140	0xbe3cc27b	-0.18433563
141	0xbd084f1f	-0.03327858
142	0xbe913dd5	-0.28367487
143	0xbd23a638	-0.03995344
144	0x3de5e785	0.112257995
145	0xbdc7e547	-0.09760528
146	0xbdc73f75	-0.097289
147	0x3c8e47e4	0.017368264
148	0xbda5300a	-0.08065803
149	0xbd829365	-0.063757695
150	0x3c0272a6	0.007961905
151	0xbe9bbc38	-0.30417037
152	0xbc839703	-0.016063219
153	0xbde25775	-0.11051837
154	0xbe32ee31	-0.17473675
155	0xbbc5aea9	-0.006032784
156	0xbe415543	-0.18880181
157	0xbe85821e	-0.26075834
158	0xbdfaf2c5	-0.12253336
159	0xbd869244	-0.06570867
160	0xbeb1c2af	-0.34718844
161	0xbe575ba7	-0.21031056
162	0x3c5c9479	0.013463133
163	0x3e066ba3	0.13126998
164	0xbe997005	-0.29968277
165	0xbd571a96	-0.05251559
166	0xbe5d6917	-0.2162212
167	0x3d6ad79e	0.057334535
168	0x3d7247cb	0.0591505
169	0xbd853ab3	-0.065053366
170	0xbe2958e1	-0.16537811
171	0xbe48fcb5	-0.1962765
172	0x3dc63ff9	0.096801706
173	0xbd94c777	-0.072646074
174	0xbc860157	-0.01635806
175	0xbe334948	-0.17508423
176	0xbeaaa932	-0.3333221
177	0x3c294b44	0.010332886
178	0x3dfee108	0.12445265
179	0x3db1fd3a	0.08690877
180	0xbe57ffd1	-0.2109368
181	0xbd9ef0d8	-0.07760781
182	0xbe944969	-0.28962258
183	0xbea11289	-0.31459454
184	0xbe74da81	-0.23911478
185	0x3e40d265	0.18830259
186	0xbe99b9cd	-0.30024567
187	0xbea0606d	-0.31323567
188	0xbda543f4	-0.08069602
189	0xbe21981b	-0.1578068
190	0xbdd1a978	-0.10237402
191	0x3da96254	0.08270708
192	0xbdd7b334	-0.10532227
193	0x3e3e1ee2	0.18566468
194	0xbc6aed52	-0.014338808
195	0xbe24a7a5	-0.16079576
196	0xbe72775f	-0.23678349
197	0xbe4a3055	-0.19745
198	0xbdd6db7a	-0.104910806
199	0xbe89e1e8	-0.26930165
200	0xbe18956c	-0.1490075
201	0xbd9f581a	-0.07780476
202	0xbc0a07f4	-0.008424748
203	0x3db44427	0.088020615
204	0xbde49136	-0.11160509
205	0xbe502053	-0.2032483
206	0x3e3467c7	0.17617713
207	0xbcc4f340	-0.024041772
208	0x3bd21fe5	0.0064124935
209	0xbd106d88	-0.035260707
210	0x3dd4503b	0.10366865
211	0x3c3a35ad	0.011365336
212	0xbd64bbf0	-0.055843294
213	0x3e1c431a	0.15259972
214	0x3e23d0c3	0.15997605
215	0x3da91fa0	0.08257985
216	0xbe69eb61	-0.22843696
217	0xbd5175ff	-0.05113792
218	0xbc3d8acf	-0.011568739
219	0x3e5e1fac	0.2169177
220	0x3d5cb600	0.053884506
221	0xbbdd02ad	-0.0067447037
222	0x3da857ce	0.082198724
223	0xbd8840ad	-0.06652961
224	0x3e149bfe	0.14512631
225	0x3e35a60d	0.17739125
226	0x3e32ff5f	0.17480229
227	0xbe04561b	-0.12923472
228	0x3e310b5f	0.17289494
229	0xbc08fbf1	-0.008360849
230	0xbe6f4add	-0.23368402
231	0xbe3d88fa	-0.18509284
232	0x3dfdfc25	0.124016084
233	0xbe2dc575	-0.16969855
234	0xbdb7c4ea	-0.08973105
235	0x3de410ef	0.11136042
236	0xbdcb7a3b	-0.09935423
237	0x3b9f4cff	0.0048614736
238	0x3e44594f	0.19174694
239	0x3e72030a	0.23633972
240	0x3e293353	0.16523485
241	0xbe453558	-0.1925863
242	0x3dd0961b	0.1018488
243	0xbe864934	-0.26227725
244	0xbe61dfa4	-0.22057968
245	0xbc31b909	-0.0108473385
246	0xbe4b009a	-0.19824448
247	0x3e17a22b	0.14807956
248	0xbc2377dc	-0.009977307
249	0x3e09fdaf	0.13475679
250	0xbe08bde5	-0.13353689
251	0xbe8711c2	-0.26380736
252	0xbe8a843b	-0.2705401
253	0x3c9e2ed8	0.019309446
254	0xbe709bc2	-0.23496917
255	0xbe949c25	-0.2902538

denseexp_layers.0.bias f4 [19]
0	0x3e4452f5	0.1917227
1	0xbddf914a	-0.109163836
2	0x3e992548	0.29911256
3	0x3e4fcb3d	0.20292373
4	0x3e8e9c19	0.27853468
5	0x3da815cf	0.08207285
6	0x3e5be53b	0.21474163
7	0x3dfb5178	0.12271398
8	0xbc196be4	-0.009364102
9	0x3d99337a	0.074805215
10	0x3d27b0d8	0.040940136
11	0xbd166073	-0.036713075
12	0x3e8a5979	0.27021387
13	0x3c5323c4	0.012886945
14	0x3de88539	0.11353535
15	0xbd2e7f8b	-0.042602103
16	0xbb8ff06c	-0.004392674
17	0x3e086a86	0.13321885
18	0x3d59a494	0.05313547

denseexp_layers.1.weight f4 [19, 19]
0	0x3dd4365f	0.10361933
1	0x3dd43738	0.10362095
2	0x3e59fa58	0.21286905
3	0x3c3e8eb1	0.0116307
4	0x3e289c04	0.16465765
5	0xbe58d938	-0.21176612
6	0x3e0929f6	0.13394913
7	0x3c81f724	0.015864916
8	0x3e1410ba	0.14459506
9	0xbda3bd11	-0.07995046
10	0x3e3e3505	0.18574913
11	0x3e0ef95e	0.13962314
12	0x3e84dea7	0.2595112
13	0x3df60a6e	0.12013708
14	0x3d859fd5	0.06524626
15	0xbc14281b	-0.009042765
16	0x3e051dd2	0.12999657
17	0x3e812521	0.2522364
18	0xbe286be3	-0.16447406
19	0x3e8030ff	0.2503738
20	0x3e0c5088	0.13702595
21	0x3da336b5	0.07969419
22	0xbcc03ce9	-0.023466544
23	0xbd8aea1a	-0.067829326
24	0x3e5f8ab8	0.21830261
25	0x3e77f799	0.24215545
26	0xbd5dd0c1	-0.05415416
27	0x3e61f358	0.22065485
28	0x3e2b1886	0.16708574
29	0xbd4f64ab	-0.050633114
30	0x3e42e3bb	0.19032185
31	0xbda78b61	-0.08180881
32	0x3ddf9913	0.109178685
33	0x3a4b65b1	0.00077589886
34	0xbda648dc	-0.081193656
35	0xbd984b24	-0.07436207
36	0xbda86bfe	-0.08223723
37	0xbb45005c	-0.0030060029
38	0x3e231131	0.15924527
39	0x3dc51b62	0.096243635
40	0xbbb97740	-0.0056599677
41	0x3e0029cd	0.12515946
42	0xbdd3a1bf	-0.10333585
43	0x3de273b9	0.110572286
44	0x3de138f5	0.10997192
45	0xbdce786c	-0.100815624
46	0x3e2dfdc0	0.16991329
47	0xbc5a3f00	-0.013320684
48	0x3d4485a2	0.047979005
49	0x3dcdefd9	0.10055513
50	0x3e831d02	0.2560807
51	0xbd685f2f	-0.0567314
52	0xbde44d84	-0.111475974
53	0x3ea9dad2	0.3317476
54	0x3e1cbe59	0.15306987
55	0x3e25e77b	0.16201584
56	0xbd715735	-0.058921058
57	0xba9e31ca	-0.0012069282
58	0x3cfbd4c1	0.030741097
59	0x3c31225e	0.010811416
60	0x3dd12763	0.102125905
61	0x3d84faa1	0.06493116
62	0xbd0ec02c	-0.034851238
63	0xbd86750a	-0.06565292
64	0xbd47e99c	-0.04880677
65	0xbbd25a97	-0.0064194906
66	0x3dae408f	0.08508407
67	0xbd71c3e5	-0.05902471
68	0x3ead79d2	0.33882004
69	0xbcf53324	-0.029931612
70	0xbc6696a0	-0.014073998
71	0xbe3f65ac	-0.18691128
72	0xbd33974e	-0.043845467
73	0x3dfeb107	0.12436109
74	0xbd2517fb	-0.040306073
75	0x3cfee1df	0.031113563
76	0xbd3dcb2e	-0.046336345
77	0x3dc68f2b	0.09695276
78	0x3e12b0a8	0.14325202
79	0xbcff373d	-0.03115427
80	0x3e197def	0.14989446
81	0xbcefa0c4	-0.029251464
82	0x3dcc44a8	0.09974033
83	0x3de39cfe	0.11113928
84	0x3dc36bb3	0.09542026
85	0x3dcaee0e	0.099086866
86	0x3dea7bfe	0.11449431
87	0xbd87554c	-0.06608066
88	0x3e3bfe0a	0.18358627
89	0xbdb99662	-0.09061886
90	0x3e0002ab	0.12501018
91	0xbd86a3f9	-0.06574244
92	0x3d3c496e	0.045968466
93	0x3e4e3e57	0.20140968
94	0xbde80e56	-0.11330859
95	0xbe0a8f87	-0.13531314
96	0x3d67ee51	0.05662376
97	0xbc5913e3	-0.01324937
98	0x3e224105	0.15845115
99	0x3ddefddc	0.108882636
100	0xbe12b18d	-0.14325543
101	0x3cd77c2b	0.026304325
102	0x3da49ce0	0.08037734
103	0xbd2e8978	-0.04261157
104	0xbdcd1d82	-0.10015394
105	0x3d1eba8a	0.038752116
106	0x3e47d95a	0.19516507
107	0x3df545f6	0.119762346
108	0xbd2b431f	-0.04181206
109	0xbe2e7e13	-0.17040281
110	0x3b93e616	0.0045135124
111	0xbde16524	-0.11005619
112	0x3d7c8621	0.061651353
113	0x3dc534d9	0.096292205
114	0x3e234328	0.15943587
115	0x3e4474cf	0.19185184
116	0x3dc8ae9f	0.09798931
117	0xbd02f0c2	-0.031967886
118	0xbd5334db	-0.05156408
119	0x3e41f288	0.18940175
120	0x3e6ab2d3	0.22919779
121	0x3e19f212	0.15033749
122	0x3e20cd5b	0.15703337
123	0x3d4a6cf7	0.049420323
124	0xbd6760a7	-0.05648866
125	0xbde809fa	-0.11330028
126	0x3e1520d4	0.14563304
127	0xbd41e04f	-0.047333058
128	0xbc898fa8	-0.016792133
129	0xbd9a71ba	-0.07541223
130	0x3ce5b3a3	0.028039759
131	0x3e642a22	0.22281697
132	0xbe07a9a8	-0.13248312
133	0x3e5b2fe8	0.21404994
134	0x3d928dda	0.07155962
135	0xbe68b87c	-0.22726625
136	0x3e4aedc0	0.19817257
137	0x3e150272	0.14551714
138	0x3d4eff84	0.050536647
139	0x3dec470f	0.11536991
140	0xbe376c40	-0.17912388
141	0x3cbbf512	0.022944007
142	0x3de04668	0.10950929
143	0x3c522447	0.012826032
144	0x3cc90846	0.024540078
145	0xbe376471	-0.17909409
146	0x3e278d10	0.16362405
147	0xbe253a7c	-0.16135591
148	0xbd931b22	-0.071829095
149	0x3e21511c	0.15753597
150	0xbdf3d4a1	-0.1190579
151	0xbdb2304c	-0.08700618
152	0xbd162f9d	-0.0366665
153	0x3e123e88	0.14281666
154	0x3e39a140	0.18127918
155	0x3db74133	0.08947983
156	0x3e35629d	0.17713399
157	0x3e056f1f	0.1303067
158	0x3e21a1b1	0.15784337
159	0x3cab4319	0.020906018
160	0x3dfdcac6	0.123921916
161	0x3da455a8	0.0802415
162	0xbde114c5	-0.109902896
163	0xbd3630f8	-0.044480294
164	0x3d3b6867	0.045753863
165	0x3c12ca69	0.008959391
166	0xbd4999b8	-0.049218863
167	0xbda302b5	-0.07959501
168	0x3d25e370	0.040500104
169	0x3e5e668d	0.21718808
170	0xbd7aff83	-0.06127883
171	0x3e709d05	0.23497398
172	0x3e0908fb	0.13382332
173	0xbcb62576	-0.02223466
174	0xbe13b621	-0.14424945
175	0x3db48c4c	0.08815822
176	0x3e94493b	0.2896212
177	0x3b3af21b	0.0028525654
178	0x3ca82388	0.020524755
179	0x3e2e8217	0.17041813
180	0x3d6f9673	0.05849309
181	0xbd20c2c6	-0.03924825
182	0x3e503aa3	0.20334868
183	0x3e2df0e4	0.16986424
184	0xbcdb2a71	-0.026753636
185	0x3e7b861c	0.24562877
186	0x3e297bfb	0.16551201
187	0xbc865704	-0.016398914
188	0xbce7f3ce	-0.028314497
189	0x3de3b9f9	0.11119456
190	0x3e1b0b7a	0.15141097
191	0xbcf8e086	-0.030380499
192	0xbda6e047	-0.08148246
193	0xbd877d0f	-0.0661565
194	0x3dc30ae5	0.09523562
195	0x3d2103a0	0.039310098
196	0x3e49788e	0.19674894
197	0x3d748533	0.05969734
198	0xbe114b9b	-0.14188997
199	0x3d849dd0	0.06475413
200	0xbe0bdf7c	-0.13659471
201	0x3e3b1f9a	0.18273774
202	0xbcd50e43	-0.026007777
203	0x3e228e06	0.1587449
204	0xbe0b6788	-0.13613713
205	0xbd9ac71c	-0.07557508
206	0x3da0c0d4	0.07849279
207	0x3e029fcc	0.1275627
208	0xbdfbc7b7	-0.12293952
209	0xbd20bef0	-0.039244592
210	0xbabcd731	-0.0014407394
211	0xbe1a6d76	-0.15080819
212	0x3dd73b67	0.10509377
213	0x3df0777f	0.11741542
214	0xbdc2bcfe	-0.09508704
215	0x3d024e41	0.03181291
216	0xbb485986	-0.0030570938
217	0x3d952f67	0.07284432
218	0x3e1be8ba	0.15225497
219	0x3dcffcd3	0.10155644
220	0x3eaf98c2	0.34296232
221	0x3e5b29dc	0.21402687
222	0x3c324875	0.010881533
223	0xbe09758b	-0.13423745
224	0x3e86f1e5	0.26356426
225	0x3cc247ff	0.023715971
226	0xbd9e337b	-0.07724663
227	0xbe2adcbf	-0.1668577
228	0x3d194444	0.03741862
229	0x3e55e77c	0.20889086
230	0xbdd62770	-0.10456741
231	0x3cb11a44	0.02161897
232	0x3e55a3de	0.20863292
233	0x3ce72bd6	0.028219145
234	0x3d817e36	0.06322901
235	0x3d831d2a	0.06402047
236	0x3e4a150d	0.19734593
237	0xbd214035	-0.039367873
238	0x3d5add22	0.053433545
239	0x3e6a91e2	0.22907212
240	0x3e6ded70	0.23235106
241	0x3dd66e81	0.10470296
242	0xbd86cdfe	-0.06582259
243	0xbd958949	-0.07301576
244	0x3d9d903f	0.076935284
245	0x3d65e53d	0.05612682
246	0x3d93281b	0.07185384
247	0x3e3a96a2	0.18221524
248	0x3cbf7275	0.023370007
249	0xbe93e195	-0.28883043
250	0x3e14c757	0.14529167
251	0x3d7b525b	0.061357837
252	0x3df4b7fa	0.11949153
253	0xbd9a649f	-0.07538723
254	0x3ca66a7b	0.020314446
255	0xbe275bc6	-0.16343603

denseexp_layers.1.bias f4 [19]
0	0xbdf47801	-0.119369514
1	0xbea21d84	-0.31663144
2	0xbd09f5d1	-0.033681694
3	0xbe053abf	-0.13010691
4	0xbe155717	-0.14584003
5	0xbeaadeb8	-0.33373046
6	0xbe8bb4ce	-0.2728638
7	0xbe5cdc37	-0.2156838
8	0x3c8fc23b	0.017548671
9	0xbe32ea2e	-0.17472145
10	0xbd041fb8	-0.03225681
11	0xbdf546f7	-0.11976426
12	0xbdbd2d7f	-0.09237193
13	0x3e28c61c	0.16481823
14	0xbd0bdf3d	-0.034148443
15	0x3d78157e	0.06056737
16	0xbe96a972	-0.29426152
17	0x3cae9ed3	0.021315968
18	0xbdaf97f1	-0.085739024

linear1.weight f4 [19, 19]
0	0x3d94111c	0.07229826
1	0xbcd75147	-0.026283873
2	0xbdd42f37	-0.10360568
3	0xbbf445f0	-0.0074546263
4	0xbd73dd3e	-0.059537165
5	0xbd6bbbff	-0.057552334
6	0xbe25b07d	-0.16180606
7	0xbcc38dc5	-0.023871312
8	0xbd7f0e2a	-0.062269367
9	0xbd8fc0f5	-0.070192255
10	0xbca1fc22	-0.019773547
11	0x3d9fca82	0.07802297
12	0xbdaab96d	-0.083361484
13	0xbd15668f	-0.03647476
14	0xbb797f0f	-0.0038070118
15	0x3d740a98	0.059580415
16	0x3d9506e4	0.07276705
17	0x3d154185	0.036439437
18	0x3da75cbf	0.08171987
19	0x3e3e730e	0.18598577
20	0xbe161f12	-0.1466029
21	0xbe75b712	-0.23995617
22	0x3e1743d4	0.14771968
23	0xbe43ce31	-0.19121625
24	0x3ce9c623	0.028536862
25	0xbe307c95	-0.17235024
26	0x3e73afa2	0.23797467
27	0xbdca4bc5	-0.09877733
28	0xbdd7c076	-0.10534756
29	0x3d89c01f	0.06726097
30	0x3d4278a8	0.047478348
31	0x3d9d07d5	0.076675095
32	0x3e97a877	0.29620716
33	0xbe7a5db8	-0.24449813
34	0x3de8c110	0.11364949
35	0x3e312339	0.17298593
36	0xbd8ae1b5	-0.067813314
37	0x3c205487	0.009785778
38	0x3e0b9dad	0.13634367
39	0xbe3d96e3	-0.1851459
40	0x3e1737cf	0.14767383
41	0x3e1c14e4	0.15242344
42	0xbe1a64fb	-0.15077583
43	0xbe1ddad7	-0.15415512
44	0xbe44dd25	-0.19224985
45	0x3d294aab	0.041330975
46	0xbe565a8f	-0.20932983
47	0xbe635069	-0.22198643
48	0x3dc2aa68	0.09505159
49	0xbda51bd3	-0.08061948
50	0xbd43c1d7	-0.047792282
51	0x3cdd71d2	0.027031813
52	0xbc36a304	-0.011147264
53	0xbd734170	-0.059388578
54	0xbe13633c	-0.14393324
55	0x3df4ecb3	0.11959209
56	0xbe458637	-0.1928948
57	0xbdb36dda	-0.08761187
58	0x3c3f4fad	0.011676711
59	0xbe46c702	-0.19411853
60	0x3bfdd294	0.00774605
61	0xb969a82c	-0.0002228326
62	0x3d61b5cf	0.055105027
63	0xbce2f88f	-0.027706413
64	0xbd822905	-0.0635548
65	0xbd27db7a	-0.040980794
66	0x3bf8d3fa	0.007593629
67	0xbd3ecb13	-0.046580385
68	0x3e05d445	0.13069256
69	0x3d54ab87	0.051921394
70	0xbdc91d54	-0.09820047
71	0x3b058eb0	0.0020379238
72	0x3daeb00a	0.085296705
73	0x3e6e6ed5	0.23284467
74	0x3d541f0d	0.051787425
75	0xbccb3e62	-0.02481002
76	0x3d6686ce	0.056280904
77	0xbd3c8994	-0.046029642
78	0xbd72a88f	-0.05924278
79	0x3dd1520a	0.10220726
80	0xbe2953b0	-0.1653583
81	0x3d83964d	0.06425152
82	0xbe4158db	-0.18881552
83	0x3e6ce40f	0.23133872
84	0xbe183ee8	-0.14867747
85	0xbe1fc4f7	-0.1560248
86	0x3d3c69ec	0.045999452
87	0x3da53185	0.08066086
88	0xbcff22bf	-0.031144498
89	0x3e1bcac9	0.15214075
90	0xbe71ad71	-0.23601319
91	0x3cdc396d	0.026882851
92	0x3da04886	0.07826333
93	0x3e165009	0.14678968
94	0xbcf8b549	-0.030359881
95	0x3d199299	0.037493322
96	0xbd9a39f8	-0.07530588
97	0x3e41e09c	0.18933338
98	0xbd020d7b	-0.031751137
99	0xbdb18527	-0.08667975
100	0xbe879371	-0.26479676
101	0xbe391513	-0.18074445
102	0xbe31193a	-0.1729478
103	0xbe789135	-0.24274142
104	0xbea9c1bc	-0.3315562
105	0x3d887ca7	0.066644005
106	0xbd60f392	-0.054919787
107	0xbd86a334	-0.06574097
108	0xbe88f6f5	-0.26750913
109	0xbc73517a	-0.0148509685
110	0x3c8bf512	0.017084632
111	0xbe65fd86	-0.22459993
112	0xbe430da8	-0.19048178
113	0xbe5ecdde	-0.2175822
114	0xbda20a1b	-0.07912084
115	0x3b4585a2	0.0030139466
116	0xbe0b03d7	-0.13575684
117	0x3db70e17	0.08938234
118	0xbb828a39	-0.0039837626
119	0xbd972411	-0.07379926
120	0xbc897ccc	-0.01678314
121	0xbd810f7d	-0.06301782
122	0x3be13cc9	0.0068737012
123	0xb9d4e444	-0.00040605862
124	0xbd9084e4	-0.07056597
125	0x3dd81128	0.10550147
126	0x3d9fee3f	0.07809114
127	0xbdb381f9	-0.08765025
128	0xb92617b0	-0.00015839818
129	0x3c33d02d	0.010974926
130	0x3e34c20d	0.1765215
131	0x3dd2b787	0.10288911
132	0x3d750c11	0.05982596
133	0xbb9dd904	-0.00481713
134	0xbe1cea60	-0.15323782
135	0xbe950935	-0.29108587
136	0x3e689d66	0.22716293
137	0xbe47b65f	-0.19503163
138	0x3e36f842	0.1786814
139	0xbe1a1708	-0.15047848
140	0x3e5e2303	0.21693043
141	0xbe24e6f9	-0.16103734
142	0xbd8bfb6f	-0.068350665
143	0x3d6a73f2	0.05723948
144	0x3e20b158	0.15692651
145	0x3de433d3	0.11142697
146	0x3e4d38ea	0.20041242
147	0xbe7ae77f	-0.24502371
148	0xbd4b623f	-0.04965424
149	0x3e8ecba8	0.27889752
150	0x3e3c6d06	0.18400964
151	0x3e33089e	0.17483756
152	0x3d955a2c	0.072925895
153	0xbe399177	-0.18121897
154	0x3d3f1de9	0.046659384
155	0x3cb8d00a	0.022560138
156	0xbe1ae7a3	-0.15127425
157	0x3d608034	0.054809764
158	0xbdb04a20	-0.08607888
159	0x3dc42a99	0.09578437
160	0xbe8acfde	-0.27111715
161	0xbe6247eb	-0.22097747
162	0xbc9dbc47	-0.019254817
163	0x3c50ed25	0.012751852
164	0xbdc07e73	-0.09399118
165	0xbd68976b	-0.05678503
166	0xbc65bb98	-0.014021777
167	0xbe2c09b9	-0.16800584
168	0xbd9b73ad	-0.07590423
169	0x3dd41c66	0.10356979
170	0xbd59a6b8	-0.05313751
171	0xbd2d2119	-0.042267893
172	0x3bc29dc2	0.0059392164
173	0xbe6ac2fb	-0.22925942
174	0x3dcbfb4f	0.09960043
175	0xbb9f497e	-0.004861056
176	0xbd7656ec	-0.06014149
177	0x3abe0f86	0.0014500476
178	0xbdc44461	-0.09583355
179	0xbcabac7b	-0.020956269
180	0xb98adee4	-0.00026487478
181	0xbdc390f2	-0.095491305
182	0x3ddccb93	0.10781016
183	0x3d88c3d9	0.0667798
184	0xbe05e83c	-0.13076872
185	0xbb43c07f	-0.0029869375
186	0x3d90530b	0.07047089
187	0x3df9d389	0.1219855
188	0x3d84e100	0.06488228
189	0xbd49505d	-0.049148906
190	0x3e24ba13	0.16086607
191	0xbdfec615	-0.12440125
192	0xbe598bb2	-0.21244696
193	0x3df1bda1	0.11803747
194	0xbe4232d6	-0.18964705
195	0x3d6f6b35	0.05845185
196	0xbe0dae77	-0.13836084
197	0x3e6c9b0d	0.23106022
198	0xbe0e6797	-0.13906704
199	0xbde6b002	-0.112640396
200	0x3d987984	0.07445052
201	0x3d911070	0.07083213
202	0x3bf9b360	0.00762026
203	0x3e7e7328	0.24848616
204	0xbe7a081c	-0.24417156
205	0x3becad2e	0.007222793
206	0x3df0a541	0.1175027
207	0x3d33b388	0.043872386
208	0x3c71cd04	0.014758352
209	0x3e2b5409	0.16731276
210	0xbe347667	-0.17623292
211	0x3e4846e6	0.19558296
212	0x3da0be26	0.07848768
213	0xbe1a6e7e	-0.15081212
214	0xbe2d3445	-0.1691447
215	0xbe4a792e	-0.19772789
216	0xb993bab4	-0.0002817713
217	0xbe41f7d8	-0.18942201
218	0xbe8436d4	-0.2582308
219	0x3d920012	0.0712892
220	0xbd903bbe	-0.07042645
221	0xbc7f92c8	-0.01559896
222	0xbd691626	-0.056905888
223	0xbc570109	-0.013122805
224	0xbd58f8c5	-0.05297162
225	0xbe650ed7	-0.22368942
226	0xbdf27a13	-0.1183969
227	0xbdc71c04	-0.097221404
228	0xbdae49f1	-0.08510197
229	0x3d0dc8b4	0.034615234
230	0xbe06c977	-0.1316279
231	0x3d0070aa	0.031357445
232	0x3a4240e7	0.0007410184
233	0xbd862404	-0.06549838
234	0x3caf6578	0.021410689
235	0xbde3e0e6	-0.1112688
236	0xbcdd8e8f	-0.027045516
237	0xbbc1c144	-0.0059129316
238	0xbc3a4676	-0.011369338
239	0x3dd02bee	0.10164629
240	0xbdaf9071	-0.08572472
241	0xbde8eef5	-0.113737024
242	0xbba39622	-0.0049922625
243	0x3d941dec	0.0723227
244	0x3e0f4f32	0.13995054
245	0x3d956bc4	0.07295945
246	0xbd11188a	-0.035423793
247	0xbd77e061	-0.06051672
248	0xbdde5822	-0.10856654
249	0xbe01d938	-0.12680519
250	0x3e25e225	0.16199549
251	0xbe5b0ecf	-0.21392368
252	0x3e0919b2	0.13388708
253	0xbe4f1329	-0.20222153
254	0x3e6292b1	0.22126271
255	0xbdf2930e	-0.11844455

linear1.bias f4 [19]
0	0x3b0c9739	0.002145244
1	0xbcb60d67	-0.022223188
2	0x3b9fbcbe	0.0048747947
3	0xbc76429e	-0.015030531
4	0xbc7d20a5	-0.015449678
5	0x3ce1bf60	0.027557075
6	0xbc1a101e	-0.009403257
7	0xbd048f8c	-0.03236346
8	0xba8c862e	-0.0010721141
9	0xbbf4c192	-0.0074693644
10	0xbcb006fe	-0.02148771
11	0x3c44053f	0.011964141
12	0xbbdbc8d0	-0.0067072883
13	0xbcd3576a	-0.025798518
14	0x3bfa222c	0.007633468
15	0xbbc15165	-0.0058995956
16	0xbcb7c652	-0.022433434
17	0x3c9fb0d4	0.019493498
18	0xbc37b00a	-0.011211405

output.weight f4 [19, 19]
0	0xbe2ebd31	-0.17064358
1	0xbde1e511	-0.11030019
2	0x3da2cbda	0.07949038
3	0x3df0697e	0.11738871
4	0x3e1f37c5	0.15548618
5	0x3e0a7169	0.13519825
6	0x3e108889	0.14114584
7	0x3d99b1e6	0.075046346
8	0x3cc37b28	0.023862436
9	0x3e377359	0.17915095
10	0xbe1b604e	-0.15173456
11	0x3e539de9	0.20665707
12	0x3d9a06a2	0.07520796
13	0xbe4677fe	-0.19381711
14	0xbd6be5cc	-0.0575922
15	0xbcc4b5d8	-0.024012491
16	0xbd5b5848	-0.05355099
17	0xbdd32d36	-0.10311358
18	0xbdbee250	-0.093205094
19	0xbe3c7042	-0.18402198
20	0x3d0b7474	0.034046605
21	0xbd658a44	-0.056040064
22	0x3d060184	0.03271629
23	0xbe1f3e8d	-0.15551205
24	0x3d94551e	0.07242797
25	0xbd8c60d8	-0.06854409
26	0xbdb08c46	-0.08620505
27	0x3d817f56	0.063231155
28	0x3d795324	0.060870305
29	0xbe3067b3	-0.17227058
30	0x3d6c56cc	0.057699963
31	0x3e360899	0.17776717
32	0x3df6e546	0.12055449
33	0x3d881182	0.06643964
34	0xbe2a6d58	-0.16643274
35	0xbde829f5	-0.11336128
36	0xbd602694	-0.05472429
37	0xbdd2d76a	-0.10294993
38	0x3e4505dd	0.19240518
39	0x3da47e6e	0.08031927
40	0xbda9bd34	-0.08288041
41	0xbda7c494	-0.08191791
42	0x3e43a06d	0.19104166
43	0x3d6bebac	0.0575978
44	0x3d722554	0.05911763
45	0x3e1cf07f	0.15326117
46	0xbe67cb71	-0.226362
47	0x3e641fdf	0.22277783
48	0xbe11b568	-0.14229357
49	0x3d8c1efa	0.06841846
50	0xbc75c6a0	-0.015000969
51	0x3e43f74d	0.19137307
52	0xbe3615f9	-0.1778182
53	0xbccd28b8	-0.02504383
54	0x3e39a435	0.18129046
55	0x3dc8dbd2	0.098075524
56	0x3cbda9c8	0.023152247
57	0xbc71faa0	-0.014769226
58	0xbe15d242	-0.14630988
59	0xbcfcafb8	-0.030845508
60	0xbc391aa0	-0.011297852
61	0xbe1ce8c8	-0.15323174
62	0xbddc8e53	-0.10769334
63	0x3e0e9cbd	0.13926978
64	0x3e2806b9	0.16408814
65	0x3d0e1b7c	0.03469418
66	0x3e34005b	0.1757826
67	0xbd528a28	-0.051401287
68	0x3dad9026	0.0847476
69	0xbe3b23ce	-0.18275377
70	0x3d938ade	0.07204221
71	0x3cd42918	0.025898501
72	0x3be8fa20	0.0071098953
73	0xbd26ce20	-0.04072392
74	0x3d3c2274	0.045931295
75	0x3d3530f4	0.04423614
76	0xbd34fc34	-0.044185832
77	0x3d042104	0.03225805
78	0x3e48b115	0.19598801
79	0x3e553557	0.20821129
80	0x3c4180d0	0.011810496
81	0x3dc05f1e	0.09393142
82	0x3bd946c0	0.0066307485
83	0xbe3bcb07	-0.18339168
84	0xbe628e7c	-0.22124666
85	0x3dbc0a82	0.09181692
86	0xbc025eb0	-0.007957146
87	0x3e121b57	0.14268242
88	0x3dc90d62	0.09817006
89	0x3e43e85d	0.19131608
90	0xbc212590	-0.009835616
91	0x3c7b8f80	0.015354037
92	0xbd92d1ae	-0.071688995
93	0xbd331b14	-0.043726996
94	0xbe39b57c	-0.18135637
95	0x3c0ed1e0	0.00871703
96	0xbadf3a80	-0.0017030984
97	0x3dc092da	0.0940301
98	0x3e35b3eb	0.17744415
99	0xbd2499b4	-0.040185645
100	0xbce03148	-0.02736725
101	0x3e18794f	0.14890026
102	0xbd27ef0c	-0.040999457
103	0x3e660681	0.22463419
104	0xbdd402f2	-0.10352124
105	0xbe5584ea	-0.20851484
106	0x3e1f884b	0.15579335
107	0x3dc6db9a	0.097098544
108	0x3bde8e00	0.00679183
109	0x3df395ce	0.11893807
110	0x3e169871	0.1470659
111	0xbd3d3ca8	-0.046200424
112	0x3e567e3b	0.2094659
113	0x3e150973	0.14554386
114	0xbca20bc0	-0.019780993
115	0x3e5b7425	0.21431024
116	0x3e539c2b	0.20665042
117	0xbe5b29b6	-0.2140263
118	0x3e338815	0.1753238
119	0xbe43a880	-0.19107246
120	0xbe463ab2	-0.19358328
121	0x3c6db150	0.014507607
122	0xbe5f5645	-0.21810253
123	0xbcf5fb20	-0.030026972
124	0x3e0eae7b	0.13933747
125	0x3e105641	0.14095403
126	0x3e41132f	0.18854974
127	0xbe214dda	-0.15752354
128	0xbe5da392	-0.21644428
129	0xbe4bb2a0	-0.19892359
130	0x3dfa983e	0.12236069
131	0xbd69564c	-0.056967065
132	0xbd970ad4	-0.07375112
133	0xbe59c0fc	-0.21265024
134	0x3c16f1e0	0.009212941
135	0x3db31232	0.08743705
136	0xbd66959c	-0.056295022
137	0x3d3d1814	0.04616554
138	0xbe5b6cc7	-0.21428214
139	0x3cdadc18	0.026716277
140	0xbc9f1bb0	-0.019422382
141	0xbdf3702b	-0.11886629
142	0x3c3d6d50	0.011561707
143	0xbceebfe8	-0.029144242
144	0x3dd11dfe	0.10210799
145	0x3d44530c	0.047930762
146	0xbcd5e720	-0.026111186
147	0x3d94c282	0.07263662
148	0xbc8e30d0	-0.01735726
149	0xbd565094	-0.05232294
150	0xbccaeaa8	-0.024770096
151	0xbe4794ce	-0.19490358
152	0xbdd66306	-0.10468106
153	0xbd9f1c0c	-0.077690214
154	0x3d0bf314	0.034167364
155	0x3e1aa139	0.15100564
156	0x3cf902c8	0.030396834
157	0xbe41d296	-0.18927988
158	0xbdaec2f4	-0.08533278
159	0xbc326a60	-0.01088962
160	0xbd860808	-0.065445006
161	0x3d932072	0.07183923
162	0x3e34befb	0.17650978
163	0x3e5664f1	0.20936944
164	0x3e0a5273	0.13508014
165	0x3e3d85cf	0.18508075
166	0x3e23e845	0.16006573
167	0x3e2ac235	0.16675647
168	0x3db3b4ae	0.08774696
169	0x3dfddcce	0.12395631
170	0x3e003c53	0.12523012
171	0x3e419af3	0.18906765
172	0xbe236486	-0.15956315
173	0x3e1f2b89	0.15543951
174	0xbe698725	-0.2280546
175	0xbe002034	-0.12512285
176	0x3d97dbd6	0.07414977
177	0xbdfd9e16	-0.12383668
178	0xbde2c265	-0.11072234
179	0x3e093521	0.13399173
180	0x3cce44f8	0.025179371
181	0x3dfae526	0.12250738
182	0xbcda0ef8	-0.026618466
183	0x3de8bbfe	0.11363982
184	0x3e4f65d7	0.20253693
185	0xbd07f820	-0.033195615
186	0xbd8cd684	-0.06876853
187	0xbd970360	-0.073736906
188	0xbe606fb5	-0.21917613
189	0x3d70ea84	0.0588174
190	0xbe662090	-0.22473359
191	0xbd7a6d64	-0.06113948
192	0xbaa77780	-0.0012776703
193	0xbb2328c0	-0.0024896115
194	0x3e32b269	0.1745087
195	0xbe59cdc8	-0.21269906
196	0xbe4d72fa	-0.20063391
197	0xbde6317d	-0.11239908
198	0xbe18b66c	-0.14913338
199	0xbe00389a	-0.12521592
200	0x3d1f0074	0.03881879
201	0xbcdaac40	-0.026693463
202	0xbd9c2c70	-0.07625663
203	0xbe67ef0b	-0.22649781
204	0x3d4fba24	0.050714627
205	0x3dafe45a	0.085884765
206	0x3e1b7065	0.15179594
207	0xbb6c3140	-0.0036040097
208	0xbe2d4698	-0.1692146
209	0x3d82c28e	0.063847646
210	0xbe58217d	-0.21106525
211	0x3e39a7fd	0.18130489
212	0xbd4c4638	-0.049871653
213	0xbe197bde	-0.14988658
214	0xbcdbc920	-0.026829302
215	0x3dbcc8fe	0.09218024
216	0xbdfb929a	-0.122838214
217	0x3e588e5b	0.21148054
218	0x3d2d69c4	0.042337194
219	0xbb81a7e0	-0.00395678
220	0x3d36deb4	0.04464598
221	0xbd923a40	-0.071400166
222	0x3e116005	0.14196785
223	0x3c13e6c0	0.009027183
224	0xbc522af0	-0.01282762
225	0xbdde1fc5	-0.10845903
226	0x3df83e62	0.121212736
227	0x3e2f22c3	0.17103104
228	0x3d12a81c	0.035804853
229	0xbe0bee6e	-0.13665172
230	0x3e60e809	0.21963514
231	0x3e5f7589	0.2182218
232	0xbc8ceb80	-0.017202139
233	0xbdc3f8fe	-0.09568976
234	0x3de4ce0e	0.11172114
235	0xbd903b7c	-0.07042596
236	0xbda10fc8	-0.07864338
237	0xbb9b3060	-0.0047359914
238	0xbe11f834	-0.14254838
239	0x3db71a0e	0.089405164
240	0x3e2daa6f	0.16959547
241	0xbb13ad00	-0.0022533536
242	0xbe09d0e6	-0.13458595
243	0x3db02e1e	0.08602546
244	0xbcbe1260	-0.023202121
245	0xbdd9ac5d	-0.10628579
246	0xbe180aa5	-0.1484781
247	0xbde4fc09	-0.111808844
248	0x3cc65658	0.024211094
249	0xbdf92988	-0.121661246
250	0xbe2a5e64	-0.1663757
251	0x3dd11802	0.10209657
252	0xbe5c8357	-0.21534477
253	0xbdc1b6c4	-0.09458688
254	0x3da6b06e	0.0813912
255	0xbd1dda58	-0.038538307

output.bias f4 [19]
0	0x3e3efd05	0.18651207
1	0xbbb288a0	-0.005448416
2	0x3c43d900	0.011953592
3	0xbdfd7f42	-0.12377788
4	0xbdc9e5e6	-0.09858303
5	0xbdc123ec	-0.0943068
6	0xbda0496a	-0.078265026
7	0xbc911f88	-0.01771523
8	0x3d722c64	0.059124365
9	0x3d6f076c	0.058356687
10	0xbe0d3e9f	-0.1379342
11	0xb9214000	-0.00015377998
12	0xbe54e95f	-0.20792149
13	0xbd2d471c	-0.042304143
14	0x3e4cafb1	0.19988896
15	0x3ccf43c8	0.025300875
16	0xbdc5b574	-0.0965375
17	0x3e358ac9	0.17728724
18	0x3dcdb272	0.10043801
