Data/f3_Single/82_LazyNet1_trainset062624_1_2X1Xe16bsize20@0.0001dk0.0001_nature_cuda1.pth (torch, 4943 bytes, 8 tensors)

denselog_layers.0.weight f4 [16, 8]
-0.045814272 0.016703725 1.0118037 0.57795924 0.048789006 -0.28172424 -0.0047184383 0.27010626
-0.0060676793 0.009690976 -0.77585447 1.290766 -0.025631512 0.014375912 0.00027282196 -0.0058551254
-5.3985e-41 -3.605e-41 -2.9251e-41 3.8028e-41 -1.6956e-41 -7.0878e-41 -6.531e-42 1.7144e-40
0.0065338123 -0.040557522 0.92073125 -0.7167298 -0.002073201 -0.0056802044 0.0040585627 -0.02179066
1.28488e-40 -8.8527e-41 -1.95017e-40 -7.2133e-41 -1.5347e-41 -1.08696e-40 4.0615e-41 -1.63456e-40
-0.014192455 -0.017242456 1.096167 -0.39188886 -0.07028395 0.10678567 0.006636207 0.011465512
-6.1217e-41 -1.61039e-40 7.6431e-41 -7.0756e-41 -1.7319e-40 -1.26648e-40 -1.19022e-40 -1.06256e-40
4.621e-42 -6.7646e-41 6.5951e-41 -1.28458e-40 1.40196e-40 1.44866e-40 1.48089e-40 -1.3157e-41
1.04891e-40 1.98062e-40 1.2621e-41 2.1674e-41 1.59025e-40 -4.0785e-41 -5.7351e-41 -2.9488e-41
-7.7659e-41 -4.929e-41 2.1479e-41 3.0028e-41 9.697e-41 8.73e-41 -1.29529e-40 6.004e-41
-9.0682e-41 8.791e-41 5.6053e-41 9.3873e-41 -6.2756e-41 -2.9573e-41 -1.72224e-40 1.4728e-40
-0.018167427 0.009217965 0.92756003 0.4812765 -0.094777554 0.040463272 0.0011355077 0.038170837
-0.011320808 0.09901097 0.30834872 0.16045551 0.299289 0.020602748 0.009466642 -0.02277952
0.22502999 0.08514266 0.15825634 -0.20108894 0.2559212 -0.011261207 -0.06555679 0.09201497
1.39365e-40 -1.55543e-40 -1.40695e-40 -1.32697e-40 8.0825e-41 7.2002e-41 9.8514e-41 -9.438e-41
1.12887e-40 -1.28308e-40 -1.0236e-40 9.9041e-41 -8.9832e-41 -2.2646e-41 -1.2198e-41 -3.582e-41
00000000: bfa7 3bbd 40d6 883c c982 813f 23f5 133f
00000010: fbd6 473d 293e 90be 219d 9abb 5e4b 8a3e
00000020: 62d3 c6bb e6c6 1e3c 669e 46bf d237 a53f
00000030: 2df9 d1bc f288 6b3c 8b09 8f39 5adc bfbb
00000040: 7d96 0080 7e64 0080 8a51 0080 026a 0000
00000050: 442f 0080 94c5 0080 3512 0080 e8dd 0100
00000060: 9719 d63b a51f 26bd 0bb5 6b3f 9b7b 37bf
00000070: 8ade 07bb 0221 babb b1fd 843b 5482 b2bc
00000080: 2c66 0100 c7f6 0080 a11f 0280 14c9 0080
00000090: c82a 0080 002f 0180 3871 0000 a6c7 0180
000000a0: 7987 68bc 0d40 8dbc 334f 8c3f a8a5 c8be
000000b0: 08f1 8fbd 72b2 da3d 8a74 d93b d8d9 3b3c
000000c0: a6aa 0080 e9c0 0180 0fd5 0000 3dc5 0080
000000d0: c9e2 0180 0b61 0180 c94b 0180 3328 0180
000000e0: e20c 0000 92bc 0080 d8b7 0000 1766 0180
000000f0: cf86 0100 d493 0100 d09c 0100 ad24 0080
00000100: 6524 0100 1e28 0200 2f23 0000 6b3c 0000
00000110: 4cbb 0100 b171 0080 df9f 0080 3352 0080
00000120: 7bd8 0080 6789 0080 e03b 0000 b553 0000
00000130: 500e 0100 5bf3 0000 1369 0180 5ea7 0000
00000140: c9fc 0080 0ff5 0000 419c 0000 ae05 0100
00000150: f0ae 0080 7052 0080 17e0 0180 8f9a 0100
00000160: dbd3 94bc f306 173c 9374 6d3f e069 f63e
00000170: bc1a c2bd d1bc 253d 51d5 943a 0659 1c3d
00000180: e97a 39bc 43c6 ca3d e2df 9d3e 734e 243e
00000190: 683c 993e 18c7 a83c f919 1b3c 1e9c babc
000001a0: 436e 663e 465f ae3d f30d 223e 42ea 4dbe
000001b0: 1b08 833e ed80 38bc a342 86bd 5872 bc3d
000001c0: 7e84 0100 97b1 0180 3388 0180 e871 0180
000001d0: 4fe1 0000 b6c8 0000 9e12 0100 1807 0180
000001e0: af3a 0100 ac65 0180 571d 0180 1614 0100
000001f0: 6afa 0080 213f 0080 0122 0080 da63 0080

denselog_layers.0.bias f4 [16]
-0.813335 -1.3691858 -3.0174e-41 -0.07107257 -2.4614e-41 -1.0014203 1.58132e-40 -2.2541e-41
-5.8238e-41 -1.08822e-40 5.5794e-41 -2.8459542 -1.4904265 0.36970732 -1.0411e-40 -6.2808e-41
00000000: b936 50bf 7b41 afbf 1d54 0080 7f8e 91bd
00000010: 9d44 0080 8a2e 80bf cfb8 0100 d63e 0080
00000020: 58a2 0080 5a2f 0180 889b 0000 1d24 36c0
00000030: 4cc6 bebf 474a bd3e 3722 0180 15af 0080

denseexp_layers.0.weight f4 [16, 16]
0.030427154 0.15246995 0.10090123 0.104408115 -0.02356167 0.1114152 0.05012779 -0.013168776
0.02905238 0.19444148 -0.029722461 0.09872906 0.02410885 -0.12546697 0.031211328 -0.0410959
0.5717105 0.08157704 0.06468871 0.103690706 0.13810028 0.38848442 0.1069425 0.05159088
-0.1497585 0.07623349 -0.069268666 0.7255723 0.34529772 0.0119472025 -0.05324047 0.15206209
-0.013910131 -0.0027739545 0.054917343 0.0024883305 -0.005845695 -0.0055116513 0.06037915 -0.0065764636
0.06643346 0.00996066 -0.043047193 0.0055045276 0.9337786 0.010005416 0.054880124 0.02094568
-0.022815717 -0.040601432 0.14340267 0.20686671 -0.054157075 0.039535902 0.034554318 -0.053843025
-0.002253276 0.015863191 -0.0235437 0.011185188 -0.017524226 -0.0004889248 -0.034951985 0.11393907
0.026819378 0.6501 -0.07539793 -0.052351445 0.0381796 -0.12363563 -0.018449306 0.08005123
0.23044755 -0.0149105685 -0.06217273 -0.008329788 0.007034211 -0.00021770163 0.20357718 -0.08550885
-0.027366988 0.090909526 -0.086828485 0.19269507 -0.008565375 0.34297216 0.04471033 -0.003968778
0.037851516 0.110653825 0.15395239 0.04015605 -0.027338557 0.024558876 -0.0011440024 -0.124964245
0.110802926 -0.039260574 0.12239579 -0.025165306 0.14459132 0.36918274 -0.05227529 -0.002930296
0.0190593 0.08799877 -0.054463204 0.09312627 0.11526352 0.0007180258 -0.06790744 -0.015270343
-0.09198725 1.0176563 0.11384464 0.095494814 0.010102129 0.07535759 0.09535346 -0.051063433
0.010045195 -0.046687234 0.1540406 -0.039398726 -0.019510731 0.029119695 -0.10009895 -0.030498309
0.94149244 1.0544304 0.123383656 -0.029764436 -0.010413595 0.009946259 0.07142824 0.06836753
-0.082879625 0.15089637 0.16646686 2.0360997 0.31181505 -0.005355186 -0.078539595 0.073938265
0.36598593 -0.12778682 0.01991826 -0.010902712 0.008658415 -0.20237248 -0.053230178 0.14461473
0.07686648 0.052055452 -0.071072444 1.1674901 0.31375074 0.00067759224 0.07418458 0.12550955
0.03502725 0.21093318 0.026924418 -0.11048724 0.034232188 -0.06245942 0.008261357 0.1286255
-0.0026100283 0.07519972 0.018832937 -0.19535148 0.023907157 -0.015614476 0.11779044 0.062452316
0.040213622 -0.18907806 -0.009980157 0.0059684 0.03660806 -0.03366518 0.051086843 0.044000063
-0.048272364 0.07798101 0.1436637 -0.04394493 0.015533234 0.0011558072 0.05188642 -0.033879213
-0.030988224 0.0008416832 0.046560694 -0.057539873 0.03670432 -0.1239714 0.043692276 0.023718415
0.04438719 0.037598636 0.032792605 -0.060664136 -0.00715997 0.0035516373 0.026581228 0.027896257
-0.038551055 -0.2083317 0.06100977 -0.062288415 0.06100977 -0.09968401 0.06100977 0.06100977
0.06100977 0.06100977 0.06100977 0.039315365 -0.122101314 0.03242672 0.06100977 0.06100977
0.37647504 1.5172576 -0.023036858 -0.0015941757 -0.15939668 0.08157646 0.1274513 0.1512954
-0.045026947 0.049735814 0.12271881 0.008356729 0.31757104 -0.0030222621 -0.019790666 0.026371703
-0.07494606 0.0076218382 0.052144025 -0.048754666 0.05262078 -0.07661634 0.052621465 0.05261952
0.05262023 0.052621443 0.052620165 -0.1697828 -0.020294901 0.33011502 0.05262173 0.052621733
00000000: 5e42 f93c 1521 1c3e 4ea5 ce3d ecd3 d53d
00000010: 6704 c1bc a72d e43d cc52 4d3d dac1 57bc
00000020: 42ff ed3c ab1b 473e 857c f3bc 7632 ca3d
00000030: ec7f c53c 6a7a 00be e6ae ff3c 2d54 28bd
00000040: 9f5b 123f dd11 a73d 847b 843d cb5b d43d
00000050: 296a 0d3e 6ee7 c63e ab04 db3d f550 533d
00000060: 4b5a 19be 4e20 9c3d bbdc 8dbd 1bbf 393f
00000070: ddca b03e 33be 433c ae12 5abd 2ab6 1b3e
00000080: 51e7 63bc 3ccb 35bb 02f1 603d 4213 233b
00000090: 3e8d bfbb 159b b4bb 2150 773d 607f d7bb
000000a0: 440e 883d 0932 233c 4152 30bd 535f b43b
000000b0: 1d0c 6f3f c2ed 233c fbc9 603d 4696 ab3c
000000c0: 07e8 babc b04d 26bd 26d8 123e ded4 533e
000000d0: cfd3 5dbd 66f0 213d d488 0d3d 818a 5cbd
000000e0: b3ab 13bb 86f3 813c b8de c0bc 1442 373c
000000f0: f78e 8fbc 302b 00ba d029 0fbd e358 e93d
00000100: 50b4 db3c f46c 263f 3b6a 9abd 786e 56bd
00000110: 3662 1c3d ad34 fdbd 0023 97bc e6f1 a33d
00000120: 71fa 6b3e 754b 74bc d5a8 7ebd aa79 08bc
00000130: 3d7f e63b d646 64b9 8976 503e 441f afbd
00000140: bc30 e0bc c62e ba3d 22d3 b1bd db51 453e
00000150: c955 0cbc 0c9a af3e 2e22 373d 860c 82bb
00000160: 310a 1b3d 799e e23d b2a5 1d3e ac7a 243d
00000170: 1cf5 dfbc b22f c93c 5af2 95ba 41ed ffbd
00000180: a5ec e23d b2cf 20bd a5aa fa3d 7927 cebc
00000190: bf0f 143e 8505 bd3e 9d1e 56bd 350a 40bb
000001a0: 4022 9c3c b338 b43d cf14 5fbd fcb8 be3d
000001b0: 480f ec3d e539 3c3a 0e13 8bbd 7630 7abc
000001c0: d063 bcbd 9042 823f 6127 e93d c992 c33d
000001d0: 6683 253c 1555 9a3d ad48 c33d e427 51bd
000001e0: 9a94 243c 1d3b 3fbd d2bc 1d3e 8f60 21bd
000001f0: f8d4 9fbc 6d8c ee3c ae00 cdbd 97d7 f9bc
00000200: a605 713f 93f7 863f 92b0 fc3d 8cd4 f3bc
00000210: c89d 2abc a2f5 223c f848 923d 4704 8c3d
00000220: cbbc a9bd 9484 1a3e 4a76 2a3e 754f 0240
00000230: 39a6 9f3e 8e7a afbb 5ed9 a0bd f26c 973d
00000240: 8262 bb3e 8cda 02be 9e2b a33c 4aa1 32bc
00000250: 06dc 0d3c bb3a 4fbe e307 5abd e215 143e
00000260: 2c6c 9d3d 1938 553d 6e8e 91bd 5170 953f
00000270: f0a3 a03e 72a0 313a 16ee 973d 9385 003e
00000280: bc78 0f3d defe 573e 9990 dc3c 2247 e2bd
00000290: 0d37 0c3d 73d5 7fbd a55a 073c 67b6 033e
000002a0: 020d 2bbb 5002 9a3d 8847 9a3c 380a 48be
000002b0: f1d8 c33c dcd3 7fbc 1d3c f13d 00ce 7f3d
000002c0: 0ab7 243d ae9d 41be d083 23bc 9192 c33b
000002d0: 55f2 153d 80e4 09bd 7040 513d 6939 343d
000002e0: 3eb9 45bd 82b4 9f3d 941c 133e 99ff 33bd
000002f0: 1b7f 7e3c 747e 973a db86 543d eec4 0abd
00000300: 04db fdbc 67a4 5c3a 6db6 3e3d eeae 6bbd
00000310: 4557 163d b8e4 fdbd acf6 323d 1f4d c23c
00000320: 58cf 353d 0701 1a3d 8a51 063d f57a 78bd
00000330: 2e9e eabb 96c2 683b e0c0 d93c b186 e43c
00000340: b6e7 1dbd e854 55be 61e5 793d 2322 7fbd
00000350: 61e5 793d 2127 ccbd 61e5 793d 61e5 793d
00000360: 61e5 793d 61e5 793d 61e5 793d 2609 213d
00000370: 4110 fabd e1d1 043d 61e5 793d 61e5 793d
00000380: 56c1 c03e 7f35 c23f cbb7 bcbc a9f3 d0ba
00000390: e238 23be 8f11 a73d 9882 023e 2eed 1a3e
000003a0: 2d6e 38bd c8b7 4b3d 0054 fb3d a9ea 083c
000003b0: ac98 a23e 2511 46bb 0920 a2bc 7809 d83c
000003c0: 527d 99bd 9dc0 f93b f994 553d f9b2 47bd
000003d0: e388 573d 07e9 9cbd 9b89 573d 9187 573d
000003e0: 4f88 573d 9589 573d 3e88 573d 8bdb 2dbe
000003f0: 7e41 a6bc d604 a93e e289 573d e389 573d

denseexp_layers.0.bias f4 [16]
-0.004682698 0.000874697 -0.0009741022 -0.00071492186 -0.011035925 0.0018768255 0.0006492932 6.873836e-05
-0.0098963985 -0.012127852 -0.0032912167 -0.0036896472 -0.00045880844 -0.0032391613 0.0035989718 -0.0038149662
00000000: 5171 99bb ec4b 653a e45a 7fba 9869 3bba
00000010: 06d0 34bc d0ff f53a 5435 2a3a a027 9038
00000020: 8124 22bc e6b3 46bc 74b1 57bb 02ce 71bb
00000030: 3a8c f0b9 1c48 54bb badc 6b3b 8304 7abb

linear1.weight f4 [8, 16]
0.0076712696 -0.0023919211 0.0012439454 0.00030069015 0.00013496971 0.0016483349 -0.0014057985 -0.0019115156
0.0011688176 0.0009367377 0.00082345185 0.0007674736 0.00079737586 -0.0003470735 -0.0011475595 -0.0017332108
0.03352653 -0.0369756 0.42370003 0.017283292 -0.021658942 -0.00015651058 -0.039241258 -0.012996754
-0.0037018536 -0.015592025 0.0078323 -0.00023167967 0.009597483 -0.020622503 -0.002452098 0.015685337
-0.007930888 -0.059083205 -0.008724443 0.23304054 -0.17841393 0.20252411 -0.004910265 -0.33861995
0.008015489 0.008305626 -0.08453251 0.14575592 0.092247635 0.0005230658 -0.07338602 0.03344818
-0.019291809 -0.00490076 -0.0001907664 0.0972111 -0.2006788 0.071443126 0.07090077 0.17648077
0.01840115 0.017238954 0.037730385 0.031753153 -0.250876 0.10653415 -0.106781505 0.020558666
0.007308103 -0.007304713 -0.034531336 -0.014053855 -0.0073035136 0.04311895 0.03508188 -0.0037923106
0.0093039805 0.01293511 -0.0035366504 -0.009358729 -0.042764567 0.016884577 -0.01016369 0.008287871
-0.13162246 0.5657752 -0.013439166 0.24405886 0.2855185 -0.42953953 -0.4811495 -0.12553018
0.025424613 -0.25001332 0.037532896 0.18157254 -0.099699244 0.051303767 -0.05304762 0.18313439
0.26539433 0.36416826 0.016193602 -0.15584739 0.28534096 0.44197315 -0.09130941 -0.097155035
0.9174085 0.5395072 -0.20991683 -0.039330203 -0.063696146 0.0017942333 0.7948586 0.007323971
0.003263738 0.028090036 -0.016156577 0.0068855803 -0.036574278 0.060481217 0.06530768 -0.020725863
0.0010619613 0.020678325 -0.006282374 0.004098058 -0.073889844 0.022480475 -0.012028947 0.027922139
00000000: 465f fb3b c7c1 1cbb e20b a33a f3a5 9d39
00000010: a886 0d39 f10c d83a c542 b8ba d28b faba
00000020: 0333 993a 678f 753a ebdc 573a 4830 493a
00000030: fd06 513a 6bf7 b5b9 b569 96ba e72c e3ba
00000040: 1d53 093d ba73 17bd 36ef d83e b195 8d3c
00000050: 186e b1bc fd1c 24b9 71bb 20bd 56f0 54bc
00000060: cc9a 72bb b175 7fbc 0c53 003c 0aef 72b9
00000070: c33e 1d3c 86f0 a8bc 61b3 20bb 897e 803c
00000080: 8ef0 01bc 3b01 72bd f7f0 0ebc 2ea2 6e3e
00000090: 24b2 36be 7b62 4f3e 4ae6 a0bb 985f adbe
000000a0: 6653 033c 5214 083c 611f adbd 0a41 153e
000000b0: 54ec bc3d 5a1e 093a 694b 96bd f500 093d
000000c0: db09 9ebc 8e96 a0bb 7708 48b9 9d16 c73d
000000d0: be7e 4dbe c650 923d 6c34 913d 60b7 343e
000000e0: 02be 963c b538 8d3c 2d8b 1a3d 980f 023d
000000f0: d272 80be 942e da3d 43b0 dabd a66a a83c
00000100: d078 ef3b 605c efbb bb70 0dbd 2442 66bc
00000110: 5052 efbb 7f9d 303d 04b2 0f3d 6a88 78bb
00000120: b96f 183c c9ed 533c 26c7 67bb 5b55 19bc
00000130: e629 2fbd 8651 8a3c 9b85 26bc dac9 073c
00000140: 0ac8 06be a5d6 103f f32f 5cbc 91ea 793e
00000150: 7b2f 923e 9bec dbbe 3a59 f6be fc8a 00be
00000160: 4747 d03c bf01 80be 18bc 193d 27ee 393e
00000170: 1e2f ccbd e623 523d 7648 59bd 9587 3b3e
00000180: c4e1 873e 4374 ba3e 72a8 843c 7596 1fbe
00000190: 3618 923e 4e4a e23e 6e00 bbbd 38f9 c6bd
000001a0: 49db 6a3f 251d 0a3f 70f4 56be b518 21bd
000001b0: 2073 82bd 7b2c eb3a da7b 4b3f ecfd ef3b
000001c0: 70e4 553b 131d e63c cc5a 84bc 6fa0 e13b
000001d0: e9ce 15bd 27bb 773d 08c0 853d 49c9 a9bc
000001e0: 8231 8b3a 9765 a93c 5fdc cdbb 0149 863b
000001f0: 8f53 97bd f928 b83c 0f15 45bc f8bc e43c

linear1.bias f4 [8]
0.09972772 0.0069662705 -0.010464534 0.04755867 0.008784652 -0.0067389533 0.055568952 0.018710123
00000000: 0c3e cc3d 5045 e43b 7073 2bbc e1cc 423d
00000010: 80ed 0f3c 70d2 dcbb 459c 633d f945 993c

output.weight f4 [8, 8]
-0.05941159 0.22064883 0.113086484 0.17288882 0.34503812 0.2490745 0.09177067 -0.25183377
-0.00043988664 0.3391588 -0.10170607 0.2962748 -0.23294465 0.115525946 -0.105299935 0.32236043
0.07096404 -0.32565954 -0.2651812 0.11183708 0.065148786 0.13080236 -0.18595977 -0.18010823
-0.27309325 -0.06444396 0.2456344 0.16306126 -0.03790578 0.10286318 -0.3518418 -0.28816044
-0.33549848 -0.29786867 0.20528385 0.06350067 -0.0025625282 -0.25273976 -0.020375725 -0.31955457
-0.063481875 0.3505599 0.20733303 0.035315264 -0.32014182 0.26098698 -0.3146023 -0.055592284
-0.08006215 0.22962391 -0.04571264 -0.18273191 0.08170845 0.1610367 0.02250258 -0.19207254
0.22727485 0.020415721 0.14024368 0.30122268 -0.21125193 0.19109613 -0.34859627 0.094079435
00000000: 9159 73bd c4f1 613e e399 e73d c409 313e
00000010: d6a8 b03e 630d 7f3e 43f2 bb3d 5bf0 80be
00000020: 96a0 e6b9 39a6 ad3e 464b d0bd 55b1 973e
00000030: 0b89 6ebe de98 ec3d 7ea7 d7bd 6d0c a53e
00000040: 9855 913d d9bc a6be d5c5 87be d70a e53d
00000050: ba6c 853d 0ef1 053e 3d6c 3ebe 4b6e 38be
00000060: e1d2 8bbe 32fb 83bd 9687 7b3e 88f9 263e
00000070: 1743 1bbd eea9 d23d 9c24 b4be c489 93be
00000080: 75c6 abbe 3e82 98be ee35 523e a40c 823d
00000090: 17f0 27bb 1b67 81be feea a6bc a89c a3be
000000a0: c902 82bd 967c b33e 1c4f 543e bda6 103d
000000b0: a1e9 a3be 16a0 853e 8d13 a1be bcb4 63bd
000000c0: a0f7 a3bd 8822 6b3e 2d3d 3bbd 131e 3bbe
000000d0: c356 a73d cee6 243e 5557 b83c aaae 44be
000000e0: bdba 683e df3e a73c 0a9c 0f3e dc39 9a3e
000000f0: 6d52 58be b4ae 433e 367b b2be b8ac c03d

output.bias f4 [8]
0.10120297 0.15774469 -0.20007986 -0.044853054 0.04141855 -0.19561717 0.25371298 -0.20063864
00000000: 8143 cf3d d387 213e bce1 4cbe d6b7 37bd
00000010: 7fa6 293d de4f 48be abe6 813e 3774 4dbe
